checkpoint_actor0.pth (torch_old, 80877 bytes, 6 tensors)

fc1.weight f4 [128, 24]
000000 78 e7 9a 3e f7 9c 75 3c 6a ea a3 bb 8e ae 56 be
       0.30254722 0.014991037 -0.0050023096 -0.20965025
000010 64 3b 00 3f 66 92 40 be a8 62 95 bc a4 73 96 be
       0.5009062 -0.18805847 -0.01823552 -0.29385102
000020 04 3b bc 3e 45 87 c1 3d 1b e9 e4 bd 28 85 4e 3d
       0.36763775 0.09449629 -0.11177274 0.050419956
000030 4d 66 d8 3e 1a b8 35 be bd 35 75 be 38 f2 5d 3d
       0.4226555 -0.1774601 -0.23946281 0.054186076
000040 1a 98 7c 3e 1e e3 00 3d ca c7 71 bc 84 52 b6 bd
       0.24667397 0.031466596 -0.014757106 -0.08902457
000050 ff 6f a0 3e 58 ae 03 bd 26 46 58 3d 78 db 9a bd
       0.31335446 -0.03214869 0.052801274 -0.075613916
000060 d8 9b 8b be 80 01 b1 3e 9d 8c b6 bc 45 fe fb bc
       -0.27267337 0.34571457 -0.022283847 -0.030760894
000070 3f ac 4d 3d ae 9d 23 bf 32 e3 76 3d 20 d7 2c bd
       0.050213095 -0.63912475 0.060275264 -0.042197347
000080 76 af 31 be b0 0a d9 3e 1a 4f fc 3b 3e 20 19 bd
       -0.1735209 0.42390966 0.0076998593 -0.037384264
000090 52 2c f2 3d e7 79 b2 bf c7 69 bf bd be e9 30 bd
       0.1182486 -1.3943452 -0.09346347 -0.043191664
0000a0 60 96 4a bd ba c0 eb 3e b7 19 69 3d 14 bb dc bd
       -0.049459815 0.46045476 0.05690929 -0.1077787
0000b0 e1 16 07 3e d9 e0 05 c0 43 fb 9d bd 75 3c 5a be
       0.13192321 -2.0918486 -0.0771394 -0.21312125
0000c0 34 26 8e 3e 96 9a 46 3e 62 f7 ec bc 3c 3d 12 3d
       0.27763522 0.19394907 -0.028926555 0.03570293
0000d0 c4 82 87 3e 1e 07 eb be 55 a6 91 bd ee 87 45 bd
       0.26466954 -0.45903867 -0.071118034 -0.048225336
0000e0 eb f5 4f 3e 0a 23 07 3e d3 60 0c 3e 42 2c 6a 3e
       0.20308654 0.1319696 0.1370881 0.22868446
0000f0 b4 2a 82 3e cc 95 0a bf f7 a5 93 3d e0 23 4d 3e
       0.25423205 -0.5413482 0.0720939 0.20033216
000100 44 29 c8 3d 58 58 2f 3e 75 63 96 3b 5e 96 8f 3e
       0.09773496 0.17123544 0.004589493 0.2804441
000110 aa ed 04 3f 73 ee c3 be 0c 57 9c 3d b0 68 b6 3e
       0.51925147 -0.3826786 0.076337904 0.35626745
000120 54 14 aa 3d 29 6e c2 3e ad 19 49 3d 93 58 24 3d
       0.083046585 0.3797467 0.049096752 0.040123533
000130 b8 e6 66 3d 93 10 54 bf 21 c9 ec bd 59 1f 08 bc
       0.056372374 -0.8283779 -0.115618 -0.008308255
000140 96 53 49 3e ae 70 c7 3e 9b bb 10 3d 47 64 8c bd
       0.19660792 0.38953155 0.035335165 -0.06855064
000150 ca 0d cb 3d 5b 65 92 bf af 2f 8c 3d 11 9d bd 3d
       0.099147394 -1.1437181 0.068450324 0.09258474
000160 71 e7 3e 3e bf 50 ed 3e a2 fb 50 bb 0d 5e aa 3c
       0.18642975 0.46350667 -0.0031888266 0.0207968
000170 ec 2f 0b 3e cb 77 cd bf 67 84 75 3c 01 79 c5 3d
       0.135925 -1.6052183 0.01498518 0.0964222
000180 34 fb 1f 3f df fd 11 3d fc b5 a8 bb f4 22 bb bd
       0.6249268 0.0356425 -0.0051486474 -0.09137526
000190 4f 4d 63 3e f1 3e 89 be fe 39 30 be 32 f0 38 be
       0.2219746 -0.26805833 -0.17209622 -0.18060377
0001a0 80 b6 3f 3f 13 9a 50 3d 75 14 c5 3b c4 3d 85 be
       0.7488785 0.050928187 0.0060144016 -0.26023686
0001b0 19 60 45 3d 2b a9 af be 73 5b 90 3c 90 6c 9b be
       0.04818735 -0.34308752 0.017621731 -0.30356264
0001c0 dd 62 f8 3e 5b c8 53 bd e4 f2 d1 bc 9e 08 a2 be
       0.48512927 -0.051704746 -0.025628515 -0.316472
0001d0 75 a6 62 be fa 73 be be c4 a0 a3 3b 7e 83 76 be
       -0.22133811 -0.37197858 0.00499353 -0.24073598
0001e0 90 48 b9 3d 64 cf 9a be 56 3f 0b 3d 66 a3 61 3e
       0.09047043 -0.3023635 0.03399595 0.22034988
0001f0 7e 2a ca 3e 92 c1 eb be 72 0e 2c bd 7a c7 ab 3e
       0.39485544 -0.4604612 -0.042005964 0.33550626
000200 f2 61 55 bd a2 f3 a9 be 7d 61 43 bd 33 28 06 3e
       -0.05209536 -0.3319369 -0.047700394 0.13101272
000210 41 78 f9 3e 1b 3a d3 be e7 ac b1 3d d5 23 f6 3d
       0.4872456 -0.41255268 0.08675557 0.12018553
000220 fa dc bc 3d d6 af 90 be 4f 45 2d be 75 be 2f 3d
       0.092218354 -0.28259152 -0.1692097 0.042906243
000230 2b cc 9f 3e d2 e5 99 be d5 e3 0f be 2a 0f b1 3d
       0.31210455 -0.3005815 -0.14051755 0.086454704
000240 88 ba 9c be 81 f0 3e be 9c c5 06 bb 31 c5 16 3d
       -0.30611062 -0.18646432 -0.0020564562 0.03680915
000250 3f 49 bb be 86 6e c6 bb a8 ca be bc 9f 1c e7 3d
       -0.3657932 -0.006055656 -0.023289993 0.11284756
000260 e0 a8 51 be e4 c9 69 bd b8 c3 f4 bd d8 98 25 bd
       -0.20474577 -0.057077304 -0.11951393 -0.040428966
000270 73 fd 84 3e 75 f8 3e bd c5 c0 9c bb ef 80 fa bd
       0.25974616 -0.046623666 -0.004783722 -0.122316234
000280 96 33 54 be 62 a6 38 3c 7d fa 99 bc 94 f7 1c 3e
       -0.20722803 0.0112701375 -0.0187962 0.15328819
000290 d6 67 4e 3f e0 b1 c0 be d9 ab dd bc d6 50 26 3e
       0.8062719 -0.37635708 -0.027059482 0.16241774
0002a0 15 2d cc 3e 57 ee 7c 3d 76 b3 d7 3d f5 d5 62 be
       0.39878145 0.061750736 0.10532276 -0.2215193
0002b0 ff ef c1 3e dc 40 4e 3e d8 20 ad 3d 45 45 7a be
       0.37878415 0.2014193 0.0845353 -0.24440487
0002c0 aa df 8d 3e c0 91 83 3d c3 64 55 bd cd 58 84 be
       0.27709705 0.06424284 -0.052098047 -0.25849
0002d0 ab 02 dd 3d 91 1a 5c 3e 71 57 71 bd ff 45 af be
       0.107915245 0.2149451 -0.05892128 -0.3423309
0002e0 c0 f3 90 3e 61 f8 71 ba de 28 6f 3b 38 1a c0 be
       0.28310966 -0.0009230432 0.0036492865 -0.37520003
0002f0 5a e7 02 3e 16 46 ee 3d 75 4e 89 bd 16 e7 d2 be
       0.12783566 0.116344616 -0.067044176 -0.4119193
000300 82 c7 8a 3e e1 64 2b be ea aa 10 3d 90 f3 78 3c
       0.27105337 -0.16737701 0.035319246 0.015194789
000310 0f cb a4 3e 3f 8e 04 bd ab c8 03 be 6f d1 ad 3d
       0.3218617 -0.03236222 -0.12869518 0.08487212
000320 b1 cb 9f 3e 7f 75 80 bd 40 4a fa bd bf 40 9d bb
       0.31210092 -0.062724106 -0.12221193 -0.004798978
000330 97 1a a0 3e db 2b 7f be db b2 50 be c0 71 17 be
       0.31270286 -0.24919073 -0.20380728 -0.14789486
000340 e4 34 ec 3e 94 09 8c 3d 9f ec 29 3d 1b 98 bf bd
       0.46134102 0.068377644 0.041485425 -0.09355184
000350 97 56 bd 3e 74 d1 60 be 89 9b 04 bd 38 57 05 bd
       0.36980125 -0.219549 -0.032374892 -0.03255388
000360 4b ec bf 3e c1 3a 28 3e 6e 4d 54 bd c8 43 89 be
       0.37484965 0.16428663 -0.051831655 -0.26809525
000370 2d 5f b7 3e ad 9b 9f be ac bd e9 bc 95 9d 11 be
       0.358148 -0.3117346 -0.028532825 -0.14220269
000380 df 3e e0 3e e6 8b 09 3e ad b8 a8 bd d3 c2 c6 bc
       0.43797967 0.13432273 -0.08238349 -0.024262821
000390 d3 de 20 3d 96 15 8b be fe d4 46 bd b0 81 17 be
       0.039275 -0.27164906 -0.04854297 -0.14795566
0003a0 21 a4 96 3e 76 96 c1 3d 43 13 2e bd 00 d7 90 bc
       0.29422095 0.09452526 -0.04249884 -0.017680645
0003b0 6c 3e 2c 3e 1b 57 95 bc d6 da 47 bd 09 43 95 3d
       0.16820687 -0.018230012 -0.048792683 0.072881766
0003c0 b2 2f 5a 3e fb 58 0b 3e 38 0a 57 bd 72 6c a2 be
       0.21307257 0.13608162 -0.05249998 -0.31723362
0003d0 8f 4b 91 3e 17 a7 8f 3e b3 4e e4 bd 64 0e d0 be
       0.2837796 0.28057167 -0.11147823 -0.4063598
0003e0 55 41 e2 3e db 5b 3d 3e e2 65 7d bd 97 b1 a7 be
       0.4419047 0.18492071 -0.06186474 -0.32752678
0003f0 31 05 9c 3e e4 4b c4 3d 36 7e 85 bc 7f 80 8e be
       0.3047271 0.095847875 -0.016295534 -0.2783241

fc1.bias f4 [128]
000000 4e d7 f1 bd 62 8f e9 3c 78 d1 a1 be 6b d9 69 be
       -0.11808644 0.028510753 -0.31605124 -0.22836845
000010 0d a8 8b be d6 11 ab be c0 f5 ec 3d 72 b5 4e be
       -0.2727665 -0.33412045 0.115703106 -0.20186403
000020 7c ce 32 bd cb 5d 33 be 79 e8 87 be 22 89 b7 bc
       -0.04365395 -0.17516248 -0.2654455 -0.022404257
000030 3a a4 8e be 21 bd 55 bd 49 ec 68 3e 44 55 e0 be
       -0.2785967 -0.05218232 0.22746386 -0.43815053
000040 e0 96 04 bf 5f 66 b3 3c 9f f6 8c be 50 ea fc 3c
       -0.51792717 0.0218994 -0.27531907 0.030873448
000050 c4 59 93 be c4 11 c2 bd f3 51 82 be 6d d7 f1 bc
       -0.28779423 -0.09476045 -0.25453147 -0.029521668
000060 1c b4 30 be 0b 41 cd be bd ed 9e be ae a7 b6 3b
       -0.17256206 -0.40088686 -0.31040755 0.005574188
000070 25 b8 a1 be 8d 23 68 be 44 36 b4 bd 7a 7c ac 3c
       -0.31585804 -0.22669812 -0.08799413 0.021055449
000080 cd 85 09 3d 87 58 01 bf 0d a3 1e be 0d e1 39 be
       0.033574868 -0.50525707 -0.15491886 -0.18152256
000090 f9 d5 ca be b5 46 e5 3c 63 18 82 bd db 76 42 be
       -0.39616373 0.027987817 -0.06352308 -0.18990652
0000a0 55 f1 cd be bb 29 1f be 36 10 87 bd a5 d5 08 bf
       -0.40223184 -0.15543263 -0.06594889 -0.53450996
0000b0 59 fe 5b be a2 84 10 be f5 37 09 be de 43 af be
       -0.21483745 -0.14113095 -0.13400252 -0.34231466
0000c0 7b cf 48 bd dd 66 7c be 55 44 c6 be ad cd ea be
       -0.049025994 -0.24648614 -0.38724008 -0.45860043
0000d0 59 51 5f bd 97 8e 92 be 12 89 b9 bd 28 3b 5a 3e
       -0.05452094 -0.28624412 -0.09059347 0.21311629
0000e0 61 a5 55 3e 33 fa 13 be 61 b1 a3 be 51 a9 d7 bd
       0.20863868 -0.14450912 -0.31971267 -0.105303414
0000f0 f7 fa df bd 82 98 8b 3c 01 90 d1 bd a9 88 27 3d
       -0.109365396 0.017040495 -0.10232545 0.040901814
000100 ec 5b 0a be 72 5b 86 be e6 a8 9e be a2 e2 3c be
       -0.13511628 -0.26241642 -0.30988234 -0.18445829
000110 6c 05 44 be 23 fc 8f 3d 68 b6 0a be fd 8c c7 bd
       -0.19142693 0.07030513 -0.13546145 -0.09743688
000120 9e d2 05 bf 07 71 15 be 0d f6 e0 be 9b 4b 29 3e
       -0.522745 -0.14593898 -0.43937722 0.16532747
000130 df 6e fd be 50 a3 05 bf 9e 6b cc be 8e fd af bd
       -0.4949865 -0.5220232 -0.39925855 -0.085932836
000140 5f 4c 56 be 5c 04 d3 be 9d 04 9c be 97 f9 4a be
       -0.20927571 -0.41214263 -0.3047227 -0.19821773
000150 28 9c d7 3c c7 2b 3e be c4 49 93 be 1e e3 02 bf
       0.026319578 -0.18571387 -0.28767216 -0.51127803
000160 f8 be 1a be f7 7c 8f bc 98 8b 20 be 13 2d 8f bd
       -0.15111911 -0.017515643 -0.15678251 -0.06991019
000170 cd 01 be be de 46 e3 be cd 98 d0 bd d8 44 0e bd
       -0.3711075 -0.44390005 -0.101853944 -0.034733623
000180 7a 0a e5 be 34 38 26 be 02 88 1a be 77 d8 7d be
       -0.44734555 -0.16232377 -0.15090945 -0.24789606
000190 d6 07 35 be 27 a5 82 3e 43 df 0f 3d fc 8e 69 3d
       -0.1767877 0.25516626 0.03512503 0.057021126
0001a0 5b 93 9e be e2 23 fc 3d b4 91 06 be 1c d9 9f be
       -0.30971798 0.123115316 -0.13141519 -0.3122033
0001b0 ff ab 28 3c ef 8e 2a be 4d 99 12 be cc 0c ea bc
       0.010294913 -0.16656087 -0.14316292 -0.028570555
0001c0 ed 05 a0 3c 40 bc 3a bd 1f fb d1 bd a1 8f 3f bd
       0.019534076 -0.045589685 -0.10252976 -0.046767835
0001d0 07 b9 8a be 30 5a 05 be a0 a2 86 bc d3 9f d3 be
       -0.2709429 -0.13022685 -0.016434968 -0.41332874
0001e0 83 d6 b0 bd 7a 89 f5 3d 8a d2 0c bd d7 03 95 3e
       -0.08634665 0.11989112 -0.034380473 0.29104492
0001f0 52 c3 b0 be 3e 21 6a 3d d2 e7 fe bd f8 71 d8 be
       -0.34524018 0.05716061 -0.1244656 -0.4227445

fc2.weight f4 [128, 128]
000000 47 e2 b5 3d 86 46 5f be 1b 80 95 3e 28 c8 81 bd
       0.088810496 -0.21804246 0.291993 -0.06337005
000010 cc a2 14 bd 87 d6 cd 3d e8 5a 20 be fa 9f 04 3e
       -0.036288068 0.100506835 -0.15659678 0.12951651
000020 49 f5 f7 3c 6d c6 5d be 57 ff 82 3d 48 7f 95 bd
       0.030268328 -0.21657725 0.063963585 -0.072996676
000030 0d d5 da bc 95 8f 16 be ec 0b cf bd 0f df d2 3c
       -0.026712919 -0.1470321 -0.10109696 0.025741128
000040 39 56 c0 bb de 7d 85 3e 3a 30 3d bf 01 b0 be bd
       -0.0058696535 0.26072592 -0.7390171 -0.09310914
000050 8b a8 f4 ba 54 39 26 be 2d 9d 02 3e a9 eb 17 3e
       -0.0018665952 -0.16232806 0.1275527 0.14835991
000060 a1 5e 2e bc d3 ac 90 bd ea 6e 89 3e d5 c6 6d be
       -0.0106426785 -0.070642136 0.26842433 -0.2322038
000070 4d 01 2b 3e 13 36 cd 3d 97 0c 01 bd e3 82 84 3e
       0.16699715 0.100200795 -0.031506147 0.2588111
000080 44 91 e2 bd 54 d6 0c 3d 85 15 0b 3d 3b 75 8a bd
       -0.110628635 0.034384087 0.03395607 -0.06760641
000090 63 12 7f bd 90 7c 83 be 49 e8 c8 3d 92 b5 15 bd
       -0.062273394 -0.2568097 0.0980993 -0.036550112
0000a0 71 93 2c 3e 73 22 87 3d ec fe 23 be 72 20 be bc
       0.1685312 0.065983675 -0.16015214 -0.02320883
0000b0 fa ea 82 3e 45 24 cc 3d 66 6e a3 3c 1f 94 2b bf
       0.25569898 0.09967855 0.019950103 -0.6702289
0000c0 20 6c 4c 3e b3 1a f2 3c 09 08 1e 3e 67 24 1d bd
       0.19963121 0.029553747 0.15432753 -0.038364794
0000d0 a3 d4 ef 3d b7 86 ff 3c a6 6c 83 3c 0a 32 9b be
       0.11710479 0.031192167 0.016043019 -0.30311614
0000e0 45 37 c1 be 64 c0 7f 3e f3 5f 24 be 90 ac db bd
       -0.3773748 0.24975735 -0.16052227 -0.10726273
0000f0 f4 78 29 bf ad cb 04 3e f1 f5 8e be 4f e5 8e 3d
       -0.66200185 0.12968321 -0.27922013 0.06977331
000100 b6 ca 06 3e ea c6 97 3d 1f a8 ba 3d bb 2d a1 be
       0.13163266 0.07410987 0.09114098 -0.31480202
000110 eb d1 ff bb 46 3f a5 be f0 c9 96 3d 0c 17 cd 3d
       -0.0078070066 -0.32274836 0.07362735 0.100141615
000120 12 4c 5d be 36 76 42 be cf 75 08 3e e3 5c bd bd
       -0.2161105 -0.18990406 0.1332619 -0.09246232
000130 04 c6 49 bd 69 09 9e be 08 89 8f 3d bd 33 14 3e
       -0.049261108 -0.30866554 0.070085585 0.14472862
000140 5b 90 a1 be 04 8f 88 be 47 69 36 3e 2c f2 02 be
       -0.31555447 -0.26671612 0.17813598 -0.12787694
000150 90 fa 71 3d 06 3f 56 3e d6 b1 72 be 21 40 2f bd
       0.059076846 0.20922479 -0.23700652 -0.042785767
000160 6c ca 66 bd 85 8f 05 be 82 c4 4d bd 10 d1 35 be
       -0.05634539 -0.1304303 -0.050236233 -0.17755532
000170 b3 7a 0f bf b5 a4 5a 3e 48 19 ed 3d af 1c 7a bd
       -0.560466 0.21351893 0.11577088 -0.06106251
000180 5b 31 ac bd dd 9b bf 3c 04 17 86 be 30 bb 56 be
       -0.08407851 0.023389751 -0.26189435 -0.20969844
000190 fa c9 15 3e 2a b5 85 be 92 ca 1d 3e 1c ba 68 3c
       0.14627829 -0.2611478 0.15409306 0.014204528
0001a0 1a aa ff 3c 9c a7 15 be 32 46 2d be ce a9 8d bd
       0.03120904 -0.14614719 -0.16921309 -0.06917153
0001b0 9e 4e 94 be e5 c0 e9 bd 75 83 2c be 65 a5 d5 3e
       -0.2896623 -0.11413745 -0.16847022 0.4172775
0001c0 05 6c b2 bd 05 b8 11 be b3 25 c0 bc 20 f5 b2 3c
       -0.08712009 -0.14230354 -0.023455476 0.0218454
0001d0 a5 49 9f be 41 cd 28 be 18 3e 65 be 8e e4 f2 3d
       -0.31110874 -0.16484548 -0.22386968 0.118599996
0001e0 7d 13 89 3e 06 a5 ab 39 c4 7b b1 bc ca f5 c4 bd
       0.2677268 0.00032738614 -0.021665461 -0.09617193
0001f0 32 c7 db bd 76 a8 21 3e 77 35 5b bc bd d1 ec be
       -0.10731353 0.15786919 -0.013379446 -0.46253768
000200 0a 02 90 bd 42 5b 77 3d 27 86 e8 bd aa 1e 95 3d
       -0.07031639 0.060389765 -0.113537125 0.07281239
000210 d3 84 85 bc 4e 72 95 bc a9 cd c0 bd 29 05 4d bd
       -0.016298687 -0.018242981 -0.094142266 -0.05005375
000220 50 91 ce bc 22 60 32 bc e4 2f 8e 3d 80 f2 f9 bd
       -0.025215775 -0.010887178 0.06942728 -0.12204456
000230 e6 79 34 bd 67 23 b7 bd f2 b0 04 be da b6 9a 3c
       -0.044061564 -0.08942299 -0.12958124 0.018886019
000240 92 68 99 3d df 3f 1a bb ea 8b ab bd 3d 0e 50 bd
       0.07490648 -0.0023536605 -0.08376296 -0.05079483
000250 5a 89 cb 3c bf 4b f7 bd e8 57 39 3d bf 66 e2 3c
       0.024845768 -0.12074994 0.04524985 0.027636884
000260 b2 63 ff bd 33 e6 1f 3d 77 10 b2 bb ca a6 65 bd
       -0.12470187 0.039037894 -0.0054340917 -0.056067266
000270 2a 40 0c bd 7e c2 0a be 81 c0 d0 bd ec f3 ad 3c
       -0.03424088 -0.13550755 -0.10192967 0.021234475
000280 2e 90 14 bc c5 6d e3 bd 7b 2a 96 bd ee 47 a1 bd
       -0.009067578 -0.11104921 -0.07332321 -0.078750476
000290 e0 fe 87 3d 81 60 c8 3c 13 7f 7c bd e4 16 87 bd
       0.066404104 0.02446008 -0.061644625 -0.06596163
0002a0 63 08 b2 3d 4a 9d d3 bd 65 c3 85 3d b0 20 df bd
       0.08693006 -0.10332735 0.06531409 -0.108949065
0002b0 34 14 95 3d c8 a5 53 bd ad 8c a5 bd dd cd 85 bd
       0.07279244 -0.051671773 -0.080834724 -0.06533406
0002c0 1d 6e d5 3b 95 12 1c 3d ed 3a 17 3d 02 e3 1d 3d
       0.0065133707 0.03810366 0.03692143 0.03854657
0002d0 58 c9 e7 bd b0 89 9e 3c 86 8a e0 bd 64 8c 0c be
       -0.113177 0.019352764 -0.10963921 -0.1372543
0002e0 b0 e2 76 bd de 14 8d bd 8c 78 b8 bc 27 8e 9b bd
       -0.06027478 -0.06888746 -0.022518419 -0.07595473
0002f0 7d 8c c9 bb 0b 60 63 3d 94 ec 0b 3d 1e 2a 3c 3d
       -0.0061507807 0.055511516 0.034161165 0.045938604
000300 f7 60 8c bd f3 07 2d bc 0c 80 f1 bd 49 f6 e0 3a
       -0.06854432 -0.010560977 -0.11792001 0.0017163242
000310 9a ef bb bd e3 01 80 bd 3d 03 06 bd ea b4 16 3d
       -0.0917656 -0.0625036 -0.032717932 0.036793627
000320 cd a8 96 3d e7 2f 9d bd 6d 94 94 bd 95 84 b1 bc
       0.07356415 -0.07675152 -0.072548725 -0.021669665
000330 3d c4 52 3d f9 e3 54 3d cd 68 84 3d 1f 2e 89 3c
       0.05145668 0.051975224 0.06465302 0.016745625
000340 a5 3d f6 3c 40 f2 49 3d e9 a0 8d bd 55 26 ba 3c
       0.030058691 0.049303293 -0.06915457 0.022723356
000350 82 83 9c bd 4a 69 f0 bc 77 8d 26 bd 1b 3a f4 bc
       -0.076422706 -0.02934708 -0.040662255 -0.029812863
000360 7f a4 a6 3d 82 7f 63 bd 5a bd 9d bc ee 47 97 bc
       0.08136844 -0.055541523 -0.019255329 -0.018466916
000370 8b c9 c9 3b 4c d2 b9 3d 73 6e 95 3d 87 34 7e bc
       0.006158059 0.09073314 0.07296457 -0.015515453
000380 ea 48 61 bd 6b 6c 87 3c f8 f3 2b bd 2f a1 2b bd
       -0.055001177 0.01653119 -0.041980714 -0.041901764
000390 17 9f 50 3d e5 a4 c7 bd 2c 1a aa bd 16 05 95 bd
       0.05093297 -0.09748248 -0.08305773 -0.07276361
0003a0 3f 7f af bd e2 1e 9a 3d d2 30 8d 3d 4e dd 12 be
       -0.08569192 0.07525422 0.06894077 -0.14342234
0003b0 0e b1 63 bd 81 a1 95 3d 6e d6 7b bd 6b 38 bd bc
       -0.055588774 0.07306195 -0.061483793 -0.023098191
0003c0 4a 51 ab bc 6d 2f a6 3d e6 c5 fd bc 79 5f b2 bd
       -0.020912785 0.081145145 -0.030978154 -0.08709616
0003d0 48 11 94 bc 62 7f 42 3c 96 74 90 bd 54 03 f0 bc
       -0.018074647 0.011871191 -0.07053487 -0.029298462
0003e0 eb a6 d0 bd 41 ea 07 3d 84 a8 92 3d af 6c 1a 3c
       -0.10188087 0.033182386 0.07161048 0.009425326
0003f0 f7 90 01 bc 54 43 a0 bc 17 1d 61 3d 1e 32 e0 3a
       -0.0079080975 -0.019563355 0.054959383 0.001710478

fc2.bias f4 [128]
000000 d3 ae 90 be a3 9b be 39 8b 8f a5 be 94 0a f8 3c
       -0.2825838 0.00036355582 -0.32336077 0.030278482
000010 39 71 c9 3d 7e 31 da be 0e 39 ba be 97 12 96 bd
       0.09836049 -0.42615885 -0.36371654 -0.073277645
000020 62 ac 50 bb 47 bc f4 3c 37 43 03 bb a6 5a 1f 3e
       -0.003184103 0.029874934 -0.0020029077 0.15561923
000030 5a ae 96 3e 44 5d 03 be f4 8b 5c 3e eb 01 26 be
       0.29429895 -0.12828547 0.21537763 -0.16211669
000040 47 63 82 bd 52 38 d6 be b7 a4 81 be 90 1f cf be
       -0.06366592 -0.41839844 -0.2532098 -0.40453768
000050 83 c5 6d bd b7 a9 a2 be d5 42 80 3d d2 cd 4a 3e
       -0.05804969 -0.31770107 0.06262747 0.19805077
000060 c0 1c c1 be 49 7c 8c bd c6 bb 89 bc ee 7b a4 bd
       -0.37717247 -0.06859643 -0.01681317 -0.0803145
000070 d8 fd 47 be ac 18 99 bd a9 f0 cb bd f4 13 9e be
       -0.19530427 -0.07475409 -0.09958012 -0.30874598
000080 08 2f 73 be cd 72 50 be a8 f1 d1 3d 31 af 07 3e
       -0.2374841 -0.20356293 0.102511704 0.13250424
000090 1d ea 90 be b0 81 f9 3d 09 3a 85 bd e3 7b e8 bd
       -0.28303614 0.12182939 -0.0650521 -0.113517545
0000a0 33 94 72 be 77 ca 28 be ee 5a 8d be ef 9c a7 be
       -0.23689346 -0.16483484 -0.27608436 -0.32736918
0000b0 d5 89 7b be 9d 23 da 3c 1c 60 7c bd 71 83 13 be
       -0.24564297 0.02662831 -0.061615095 -0.1440561
0000c0 d6 7c 9c 3c cc 8c a5 be 33 45 b2 be d4 f3 97 bd
       0.019102495 -0.32333982 -0.3481842 -0.074195534
0000d0 67 80 6c be 68 bd 33 3e 34 4d 83 3d e8 e4 81 be
       -0.23095857 0.17552722 0.0641121 -0.25369954
0000e0 0d 7b 55 be 7b 99 45 be c5 33 86 be 74 c9 b9 bd
       -0.20847721 -0.1929683 -0.26211372 -0.09071627
0000f0 05 d4 91 be bb dc af 3d ae 37 33 3e 0c c4 fc bd
       -0.2848207 0.08587023 0.17501709 -0.123420805
000100 08 23 38 bd 23 eb 1d 3c d4 b3 1b be 14 f1 fc bd
       -0.044955283 0.0096385805 -0.15205318 -0.123506695
000110 23 8a 4d 3c 5d 96 3c 3e 61 47 d6 bd fc c6 34 bc
       0.012545141 0.18416734 -0.10462833 -0.01103377
000120 6d 31 5e 3e ff ab a1 bd 50 2b d8 bc 97 09 b0 be
       0.21698542 -0.07894134 -0.02638784 -0.34382316
000130 38 17 95 be d4 5c 8c 3e 5f 2e 85 be 52 a1 70 be
       -0.29119277 0.27414572 -0.2601194 -0.23499039
000140 48 80 90 be 0f b3 00 be 4e 55 9c 3e 43 de 6a be
       -0.2822287 -0.12568305 0.30533832 -0.22936349
000150 29 f6 b9 bd 80 77 44 bd d0 a5 30 be 0b 0e 99 be
       -0.090801544 -0.047965527 -0.17250752 -0.29893526
000160 bd ba 1b 3e 54 84 d1 bc 03 3d 70 be e2 fb 62 be
       0.15207954 -0.025575794 -0.23460774 -0.22166398
000170 1b 40 0e be ad b5 ca bc 31 d0 12 be a2 09 27 3d
       -0.13891642 -0.024744833 -0.14337231 0.04078067
000180 70 7f b9 3c ae 8f c9 bd 5b 35 04 bd 2a 1f 8e 3d
       0.022643775 -0.09841858 -0.032277446 0.06939538
000190 8e f1 34 bd 7a 67 64 be 33 63 e3 ba b7 70 3c 3e
       -0.044175677 -0.22305098 -0.0017348289 0.18402372
0001a0 84 ae ce 3e 73 63 27 be 00 e9 8f bd 48 09 4f 3d
       0.4036752 -0.1634653 -0.07026863 0.05054596
0001b0 b9 95 55 3d 80 47 5d be 30 73 52 be 27 22 e7 bd
       0.05214474 -0.21609306 -0.20551753 -0.11285811
0001c0 49 04 dc bc 55 07 e3 bd 7e a5 2a be c8 26 2f be
       -0.026857512 -0.11085383 -0.16664693 -0.17104638
0001d0 0e b5 3b be 79 25 91 3d a0 26 b2 bb ac e0 96 be
       -0.18330786 0.070872255 -0.0054367334 -0.29468286
0001e0 42 28 d9 3d 10 ed 69 be 7d 53 43 be 08 e2 fc bd
       0.10603382 -0.22844338 -0.19074817 -0.123477995
0001f0 1b d0 9d be 8d 4b 04 3e 12 d0 94 bd 95 68 ec bd
       -0.30822834 0.12919445 -0.07266249 -0.11543385

fc3.weight f4 [2, 128]
000000 55 c2 0b 3e ed c0 eb bb 43 42 84 3e 3d 56 01 bf
       0.1364835 -0.0071946294 0.25831804 -0.50522214
000010 c8 a7 ca 3e a8 61 b0 3e be 68 3c 3e 07 8a 9f be
       0.39581132 0.34449506 0.18399331 -0.31159994
000020 dc 65 ae 3e 22 4e 0c bf 67 49 5a bb 04 b0 aa be
       0.34062088 -0.5480672 -0.0033307911 -0.33337414
000030 0e 60 b3 bd ef 03 1d bd cf bf 7e bf 80 ba 0a 3e
       -0.08758555 -0.03833383 -0.99511427 0.13547707
000040 54 49 5b bd 87 cd 36 3e 5a c5 8d be c0 c7 85 3e
       -0.053536728 0.1785184 -0.2768963 0.2612896
000050 ac 01 9c be a7 8a 54 3f b9 73 27 bd 40 5e f9 bd
       -0.30470026 0.83024067 -0.040881846 -0.1217618
000060 64 df 9b 3e 3a 9b 44 be 1b 2a 85 be 89 5d 0b bd
       0.3044387 -0.19199839 -0.26008686 -0.03402475
000070 f6 9d d1 bd 5c 6c df be 8b da 63 3e 6b 41 0e 3e
       -0.10235207 -0.4363736 0.22251336 0.13892142
000080 38 71 0c 3e 25 94 7b bd 75 7a 48 be 25 60 95 be
       0.13715065 -0.06142058 -0.19577964 -0.29174915
000090 11 e9 76 3e 5b b0 34 bf 5c 7f e9 be 75 65 f2 bd
       0.24112345 -0.705816 -0.4560498 -0.11835758
0000a0 84 7e 3b 3e ea 27 44 bd 51 74 2e 3f 2f 73 ae be
       0.1830998 -0.047889628 0.68146235 -0.34072253
0000b0 5d 24 6e be 08 c5 44 bf 3e c1 2c 3e 27 24 fe bd
       -0.23256059 -0.76863146 0.16870591 -0.12409239
0000c0 8b 82 03 be 17 fe 97 3e a9 b8 83 bd de 6f 71 bc
       -0.12842767 0.29686043 -0.064317055 -0.014736144
0000d0 c1 aa 84 3e b2 39 dc be f1 17 23 be 9b 04 a6 3d
       0.25911525 -0.43012768 -0.15927102 0.08106347
0000e0 11 dd 98 be 44 5a 7f be 65 26 9c 3e bf fe ef be
       -0.2985616 -0.24936777 0.30498043 -0.46874043
0000f0 19 06 7a 3d 64 24 f0 be df 64 d2 be ef c9 9a 3a
       0.06104097 -0.46902764 -0.41092584 0.0011809448
000100 e2 3c 91 be 6e 7f 4f be e1 b6 a1 3e d3 89 36 bb
       -0.28366762 -0.20263454 0.31584838 -0.0027853146
000110 c1 46 46 bf 3c 41 f4 be 7e 3e 25 be 13 65 c6 be
       -0.7745171 -0.4770602 -0.1613712 -0.38748989
000120 42 f2 6f 3d de df 10 be e9 02 0d be 1a c5 c9 3e
       0.058580644 -0.14147899 -0.13770641 0.3940819
000130 88 17 82 be 59 63 b2 bd 55 8e c9 be 09 fd a0 be
       -0.25408578 -0.08710355 -0.39366403 -0.3144305
000140 06 17 06 3d ac ae 8f be 16 a7 a5 be 8e c5 8e 3e
       0.0327368 -0.28062952 -0.3235404 0.27885097
000150 aa b4 9a bc 88 62 bd 3d 41 6f ba 3e 4c d9 63 be
       -0.018884975 0.09247309 0.36413005 -0.22250861
000160 3b e5 b5 be 08 48 1e bc 5f 50 e7 3d 9c 13 13 bf
       -0.3552645 -0.009660728 0.112946264 -0.57451797
000170 b5 75 2b 3e 72 de 2d bd cd 92 e7 be 18 5d 5d be
       0.1674412 -0.04244847 -0.45229188 -0.21617544
000180 a1 ee 2b bf 16 42 47 3e 63 92 77 3e 25 c0 dc bc
       -0.67160994 0.19458804 0.24176936 -0.02694709
000190 3a 54 6d 3b e4 22 02 3f 23 75 39 3c f0 94 d0 3d
       0.0036213533 0.5083449 0.0113194315 0.101846576
0001a0 52 9e 03 be 59 f1 46 bb 4a 03 a3 3e 7d f4 09 be
       -0.12853363 -0.0030356257 0.31838447 -0.13472171
0001b0 69 99 e6 bd fa 0f 03 be 3b 97 bd be 70 21 11 3e
       -0.112597294 -0.12799063 -0.37029442 0.14172912
0001c0 84 5b e6 be 06 e6 e7 bd 91 34 15 be 69 bf 06 3f
       -0.44991696 -0.1132317 -0.14570834 0.5263582
0001d0 26 0e 1b bd cb bb 8a be e1 2b 74 3e 21 52 76 3e
       -0.03785529 -0.270964 0.23844863 0.24054767
0001e0 7d a1 a8 be df 39 b8 3d 4b 0e 96 3c c8 2d ff 3e
       -0.32935706 0.08995413 0.018317362 0.49839616
0001f0 d8 a5 22 be 8a 4c 00 bf 64 1d 40 bf 66 ee 5b 3d
       -0.15883577 -0.5011679 -0.75044847 0.05369415
000200 2d a0 6a 3e 6e 28 3b 3d 5e 27 73 3c cb 7a 5f bd
       0.22912665 0.045692854 0.014840929 -0.054560464
000210 a3 db 0c bf 6e c2 b7 be e8 4b 83 bd 68 94 36 be
       -0.5502264 -0.35890526 -0.06410962 -0.1783005
000220 8e 70 0a bf 1e 05 9f 3e 4a dd 93 3c 66 57 f6 3d
       -0.54077995 0.31058592 0.018049855 0.12028389
000230 cb 37 06 3f bc f0 38 3f 46 7a 10 be de c6 2a bd
       0.52428883 0.7224233 -0.14109144 -0.04169356
000240 4d ea df be f2 6f 1e be ab 22 c7 bd 06 ae 2e 3e
       -0.43733445 -0.15472391 -0.09723409 0.17058572
000250 13 6c 24 3f 78 e5 6a 3e 7a bc 7e bf 3e 59 d6 bd
       0.6422741 0.22939098 -0.9950634 -0.1046624
000260 a6 0a 04 be 58 eb ba be 05 71 99 be 3f 89 00 bf
       -0.12894687 -0.36507678 -0.2996904 -0.5020942
000270 ef 48 83 3e a8 66 aa 3c 16 c0 76 3e f4 65 9d 3f
       0.2564158 0.020800903 0.24096712 1.2296739
000280 af c6 d5 be e7 00 58 bf d3 70 ea be 75 1d 0a bf
       -0.41753146 -0.84376377 -0.45789203 -0.539512
000290 95 77 b9 be 83 12 37 be 02 bf a2 3d 06 5a 47 be
       -0.36224046 -0.17878155 0.07946588 -0.19467935
0002a0 b2 10 df bc dd 68 1c 3f 52 10 3b be 9e a6 85 3e
       -0.02722964 0.6109751 -0.18267944 0.2610368
0002b0 fb 8a 84 bb 30 8a 92 be 3c 15 56 be 3a 99 d6 3e
       -0.004044888 -0.28621054 -0.20906538 0.41913778
0002c0 6a 1b 9a 3e 4c 2b b6 bd c5 1c 60 3f 30 ff 7a 3d
       0.3009904 -0.08894977 0.875439 0.061278522
0002d0 71 0a f8 be 80 54 22 3f 73 bd bd be 21 4b c2 3e
       -0.48445466 0.63410187 -0.370586 0.37947944
0002e0 83 84 52 3e e1 31 26 be d1 42 b4 3e ab 76 aa be
       0.20558362 -0.16229965 0.35207227 -0.3329366
0002f0 2c 50 e8 3e 51 42 5e 3e ca a1 0f bf 17 b1 18 bf
       0.45373666 0.21704985 -0.56106246 -0.5964522
000300 ef d0 2b 3d f3 c2 91 be 1b f2 b1 3e d5 ab c0 bd
       0.0419473 -0.28469047 0.34755024 -0.09407774
000310 4a 07 81 be 66 71 0e be 4e 4e a2 bd 11 4d 99 be
       -0.25200874 -0.13910446 -0.07925092 -0.2994161
000320 25 cf 4f bf 2c 7e 0b be 94 ce 30 3e a7 c7 65 3e
       -0.8117545 -0.1362235 0.17266303 0.22439443
000330 ef 6d 27 bd 96 1a 98 3f 6d 88 85 3e c5 49 40 3d
       -0.040876325 1.1883113 0.26080647 0.046945352
000340 0f d8 04 3f a2 e2 e5 3d c4 eb 23 bf 63 87 31 bd
       0.5189218 0.112248674 -0.64031625 -0.043342005
000350 d3 54 79 3c 6c 97 c9 3e e1 4d a7 bd 78 04 62 be
       0.015217978 0.39373338 -0.08169151 -0.22072017
000360 28 e0 54 3e 05 b1 32 bd 68 9f bb bd b4 61 b3 be
       0.20788634 -0.04362585 -0.09161264 -0.3503548
000370 f6 dd 30 3e 88 3a 23 3f 19 e1 3c bd 7b 7c 2b bd
       0.17272171 0.63761187 -0.046113107 -0.04186676
000380 cc 41 43 3e 1e ac de 3e 89 64 93 3e f4 9e 23 bf
       0.19068068 0.4349069 0.2878764 -0.6391442
000390 f9 14 34 bd 0e 7e da 3d ed 55 6c bd 5f 82 07 bf
       -0.043965314 0.10668574 -0.057699133 -0.52933306
0003a0 f7 83 81 3f 65 4c 38 3f 4b 2b a8 3e 2d c0 26 3d
       1.0118397 0.7199157 0.3284553 0.040710617
0003b0 34 8d 23 3f c0 c7 c2 be 4e 72 15 3e 39 1d e1 be
       0.63887334 -0.38043022 0.14594385 -0.43967608
0003c0 58 17 2b bd d0 a8 c8 3e 4a 0f 2b bf 00 5c ae bc
       -0.04177031 0.39191294 -0.66820204 -0.021284103
0003d0 63 9e 0a 3f b7 4f 71 3c 3b b8 08 3e 82 73 a1 be
       0.5414793 0.014728478 0.13351528 -0.31533438
0003e0 27 18 09 be a8 f6 01 3f 1e d7 92 3e 70 7d f2 3c
       -0.1338812 0.5076699 0.28679746 0.029600829
0003f0 f2 98 58 be ea b2 b6 3e d0 33 40 3e 9a 50 21 bf
       -0.21152094 0.35683376 0.18769765 -0.63013613

fc3.bias f4 [2]
000000 61 01 db bd 30 41 6e 3e
       -0.106936224 0.23267055
