checkpoint_actor1.pth (torch_old, 80877 bytes, 6 tensors)

fc1.weight f4 [128, 24]
00000000: aff4 413d 6847 613e cb81 98bd 13f7 5b3e
00000010: 6226 7e3e bfb6 a2be f59b b3bd e1bd 053e
00000020: f7f4 d23d 9da3 bb3e 5632 2e3d 7f11 3d3e
00000030: f352 333e 865d fbbe ec68 aebd c5ec 403e
00000040: ab2f fa3d b03f ec3e 4260 173d 01d9 7f3e
00000050: 1862 923d 49c3 47bf ae0c d63d 30ca 863e
00000060: 7f58 efbd e58b 12bf 8863 9fbd 8646 99be
00000070: 9779 f6bd f004 94bd 8c1c 9b3b 9421 9fbe
00000080: e37c f5bd eaa4 03bf e2ef 303d 758f fabd
00000090: ac24 293e c48a adbc 4a6d 6dbd 053a 03be
000000a0: b3b0 6cbd 8b82 c3be 2e1a af3d b634 02be
000000b0: e065 523e 0f5a ae3e 94d9 46bd 4314 6ebe
000000c0: 477e 493e eb3b ba3e 4582 ddbc 4fd4 e33d
000000d0: 73bc 913e 9538 773d e2c8 8dbd c3c4 df3c
000000e0: a83d 003f d0c9 083f 5a16 9dbb b48a 8a3e
000000f0: 303a d73e 27f8 40be e0ec 8ebd 9a0c 783e
00000100: 59a0 023f aad6 0a3f b357 1abd dc81 2f3e
00000110: 0646 0d3f b88e c8bd 3e89 0b3d d625 7d3e
00000120: 4b5d 343e 3eb7 e1be 72d7 df3d 651e 87be
00000130: bd7a 84be f145 03bf 12fc 62bd 31ea 9fbe
00000140: c759 553e 03fc 10bf 2631 7dbc 112b 51be
00000150: 7e48 b0be d9c4 87be b9ae 903c e7a8 30bd
00000160: 5c38 713e 20fc 16bf 59e2 2e3c 814c d9bc
00000170: abba edbe a0c8 5c3d 2252 ec3c b119 493d
00000180: d7ad 543e 5e4b c0bd be60 913d 2b1e 1d3e
00000190: 8f25 48bd eef9 163e 6687 c4bd f77f 833d
000001a0: 79a0 633e 9011 adbd d4a1 2e3d bf5f e13d
000001b0: daaf 81be dd27 763e 922d 5e3d 08a5 883d
000001c0: 3159 4e3e d268 19be 0111 0ebd 5563 8ebe
000001d0: 2b82 f4be 83d4 923e fc0f 85bb bc38 4fbe
000001e0: 08e4 04be 0578 10be 0ab9 253d 39c2 c4bd
000001f0: 257c 283f 69d0 843e 8094 11bd 5c5a 9c3c
00000200: 08c4 5ebe 7fb3 33be 0a70 92bd e888 8cbd
00000210: 1c93 a73d f196 583e c4ed 803d b2b5 a2bd
00000220: cc54 0abe cbb4 0fbd cf0f e0bc 7998 0b3e
00000230: 1b5f 20bf c78d 3a3e 8cb1 af3a 1c30 383e
00000240: c358 853e 1bde 0d3e b63d 46bd fbb5 be3d
00000250: 05b9 b13e 7aaf c2be 399b 8ebd c138 2d3e
00000260: 84fa dc3e aedc 3a3e d6c7 d53b 323a 893d
00000270: 8cf6 5e3e 0db8 2ebe b253 f83d a0cc 73bc
00000280: 2aa4 783e 8389 583e 18c2 10be 95af f3bd
00000290: 4066 12bc faba 06be 3c38 19be 7dfc e0bd
000002a0: f059 c53e ed94 ed3e 00d5 80bd 4b71 4a3d
000002b0: 60dc 3ebe 7362 17be be67 abbd b167 d93c
000002c0: 3260 b13e baee f13e 44a4 e43a 93f0 763e
000002d0: cf52 d3bd 5290 60be 046e a6bb 4015 213e
000002e0: cb54 a33e 3884 b63e ed40 71bd 9059 96be
000002f0: fdea 3c3e 0bc4 a9be 3cb3 04be 6826 a9be
00000300: d2c1 393e 7c92 69be 3094 883d 296d e93c
00000310: b424 ba3d b1f6 4d3e 9652 c7bd f30c c93d
00000320: 8797 4f3e b552 87be 272d 273d 0443 9f3d
00000330: c092 3dbe 16ae ad3e c809 27bd bbcc 85bd
00000340: 5e4c 203e 4c82 74be 22d5 0f3d a407 74bd
00000350: 563c 23bf cb58 713f dab2 1ebd 63ec b93a
00000360: 5088 babd 701e e2be 4f39 24bd f0ae 80be
00000370: fc2e 043e fa2d 5dbe dd94 89bc 7172 00be
00000380: b8f6 90bd fc25 babe d8e1 6bbd 50ef d23c
00000390: 43f5 b6bd 66fb 07bf 2d89 c2bc 9196 c8bd
000003a0: a5fa 24bd 4efc 6ebe 345d b4bd 098a 6d3e
000003b0: 7252 84be 7ff9 1dbf d840 c1bd cf22 a53e
000003c0: 97aa b73d 6119 fabb 17f0 a13d 59d8 09bd
000003d0: a9b7 b83d 3271 603e 2f9c a43c 2273 fbbd
000003e0: e669 c23d ca97 60bd 009c 6a3d cce0 20bd
000003f0: c46c b7bc 0889 cb3e 5ea0 d23d 26ac 223c
0.04735249 0.21999896 -0.07446631 0.2148097 0.2481933 -0.3178005 -0.08769981 0.13060714
0.103006296 0.36648265 0.042528473 0.18463705 0.17512111 -0.4909479 -0.08516106 0.1884032
0.12216123 0.4614234 0.036957033 0.24985124 0.07147616 -0.78032357 0.10451637 0.26326132
-0.11686801 -0.5724471 -0.07782656 -0.29936618 -0.1203491 -0.07227504 0.0047336277 -0.31080306
-0.11986711 -0.51423514 0.04319752 -0.122343935 0.16517895 -0.021184333 -0.057965554 -0.12815101
-0.0577857 -0.38185534 0.08549915 -0.1271542 0.20546675 0.34053084 -0.048547342 -0.23249917
0.19677077 0.3637384 -0.027039656 0.11124479 0.28464088 0.060356695 -0.06923081 0.027315503
0.5009408 0.5343294 -0.0047939243 0.27058947 0.4203658 -0.18844663 -0.06978774 0.24223557
0.5102592 0.542338 -0.037681293 0.17139381 0.5518497 -0.097928464 0.03406643 0.24721465
0.17613713 -0.44085115 0.10929765 -0.26390377 -0.25874892 -0.512786 -0.055416174 -0.3123336
0.20835029 -0.5663454 -0.015453612 -0.20426585 -0.34430307 -0.2651737 0.01766144 -0.043129828
0.23556656 -0.5897846 0.010674083 -0.026525738 -0.4643148 0.05390227 0.028847758 0.049096767
0.2076944 -0.09389375 0.0709853 0.1534354 -0.048863944 0.14743778 -0.09596138 0.06420892
0.22229184 -0.084506154 0.0426348 0.1100459 -0.25329477 0.24038644 0.054242678 0.06672102
0.20151211 -0.14981392 -0.034684185 -0.2781016 -0.4775556 0.2867776 -0.0040607434 -0.20236486
-0.12977612 -0.14108284 0.04045967 -0.096073575 0.6581443 0.25940254 -0.03554201 0.019086055
-0.21754467 -0.17548941 -0.07150276 -0.0686205 0.08182356 0.2115133 0.0629535 -0.07944812
-0.1350891 -0.035084527 -0.027351288 0.13632382 -0.6264512 0.18218146 0.0013404354 0.17987102
0.26044282 0.13854258 -0.048398696 0.09312054 0.3471147 -0.38024503 -0.069632 0.16916181
0.43159878 0.18248245 0.0065240664 0.06700553 0.21773738 -0.17062397 0.121253386 -0.014880329
0.24281374 0.21146207 -0.14136541 -0.11898724 -0.008935511 -0.13157263 -0.14962858 -0.10985658
0.3854518 0.46402684 -0.062906265 0.04942445 -0.18638754 -0.14783649 -0.083693966 0.026538702
0.34643704 0.47252446 0.0017443975 0.2411521 -0.10318529 -0.21930054 -0.005079033 0.15730762
0.3190063 0.3564775 -0.05889981 -0.29365206 0.18449016 -0.3315738 -0.12958997 -0.33037114
0.18140343 -0.22809786 0.066688895 0.028494434 0.09089032 0.20113637 -0.09732549 0.09816923
0.20272647 -0.26430288 0.040814545 0.07776454 -0.18513012 0.3392188 -0.040780813 -0.0653319
0.15654132 -0.2387783 0.03511537 -0.0595776 -0.6376394 0.9427611 -0.038744785 0.0014184829
-0.09108031 -0.44163847 -0.040093716 -0.25133467 0.12908548 -0.2159957 -0.016794616 -0.12543656
-0.07078308 -0.36357105 -0.05758843 0.025748879 -0.08933499 -0.5311798 -0.023747051 -0.09794343
-0.040278096 -0.23338434 -0.088068396 0.23197187 -0.2584415 -0.61708826 -0.09436196 0.3225312
0.08968084 -0.00763242 0.07907122 -0.03365359 0.090194054 0.2191818 0.020094005 -0.12277819
0.09492855 -0.054832257 0.05727768 -0.039276883 -0.02239073 0.39752984 0.10284494 0.009928739

fc1.bias f4 [128]
00000000: 9d29 e2bb d70b fb3d 7211 edbe 8f38 89be
00000010: 71e7 05be df85 3fbe a1e8 7dbe 167e afbe
00000020: d60e 99bd 04e5 88bd 1b93 1cbe dce6 d83d
00000030: eeb4 59be e617 1b3e 2866 b93d 9c3c 73be
00000040: 4074 8cbd 5537 153e cef6 2abe 55d3 97bd
00000050: a8c1 e53d 3851 fbbc a5d9 b1be 71ea b3bc
00000060: e4e8 94be 448c 2cbe 3859 68bc 3d17 91bc
00000070: a401 b6be 6183 9cbe b69e 62be 4dfb b33d
00000080: 8598 ea3d 9cee b9be 664c 53be 9112 2b3e
00000090: 081d 373e a597 e5bb 6c05 b03c 0bed a6be
000000a0: b56b b0bc 6035 7e3c f5d3 e73d 3094 08be
000000b0: d2a3 2f3d 5ed2 b13d 5afd b63d bd36 a13d
000000c0: 6be1 133e 28a0 2abe e5cb 8ebe 24b0 bdbd
000000d0: 9e82 983e 36c1 c4bd e7c9 dd3d f844 29be
000000e0: 6cf0 b53b 8747 05be b5aa fcbe ebc0 0fbc
000000f0: 6539 41bd b943 7abe b32b 81be 9fcb 983b
00000100: 3498 573d 6274 8cbe 46a8 7dbe 9043 d8bd
00000110: 9491 bfbe e6db 3e3d 2757 6f3b 3a48 09be
00000120: c7e3 a8be 9da2 c1be 763d fbbc 4aa6 4c3e
00000130: 99ac b6be 8370 93be 17eb 48be c868 123d
00000140: 7813 67be 7659 95be 5d28 12be 61fa 5fbd
00000150: c2be 923e 671b 2ebe 8c33 4cbe b86b aebe
00000160: 2500 c5bd 6406 6dbe b079 82bb fb25 383e
00000170: e2cc a4bd 7a47 c4bb 98dc c2bd 846b 8dbe
00000180: 8662 25be 7ea0 ed3d 208f 85bc 52e2 0abe
00000190: e350 20be cc2c 17be 590d 1ebe 77ee 3dbe
000001a0: 2740 f6bd 0514 5c3d d8ab debd 8d99 ddbd
000001b0: d447 723e dfdc 0d3e 236b c5be 70b8 80bd
000001c0: c92a 31be 7e36 7d3d 0d50 07be 7d83 59be
000001d0: 2806 d5be 341a 033e e587 b4bd ec3f adbe
000001e0: 53bc cc3d 2bd7 473c 3a0f b2bb b71b 9e3e
000001f0: acbf 56be 1ae8 0cbe da58 32bd b4af f2be
-0.0069019333 0.12258118 -0.46302372 -0.26800963 -0.13076569 -0.18703412 -0.24795772 -0.34275883
-0.07473533 -0.06684306 -0.15290491 0.10590908 -0.21260425 0.15145835 0.09052688 -0.2375359
-0.068581104 0.14571889 -0.16695711 -0.07413355 0.112185776 -0.030678377 -0.34736362 -0.021962376
-0.2908393 -0.16850382 -0.014181428 -0.017711276 -0.35548127 -0.30568984 -0.22130856 0.08788166
0.11454872 -0.36314857 -0.20634612 0.16706301 0.17882168 -0.007006603 0.02148696 -0.32602724
-0.021535734 0.015515655 0.113197245 -0.13337779 0.04288084 0.086827025 0.08935042 0.078717686
0.14441459 -0.16662657 -0.27889934 -0.09262112 0.29787153 -0.096071646 0.108295254 -0.16530216
0.005552342 -0.13015567 -0.4934899 -0.008774023 -0.047173876 -0.24439897 -0.25228652 0.0046629454
0.052635387 -0.27432543 -0.24771222 -0.105597615 -0.37415755 0.04659643 0.0036520453 -0.13406458
-0.3298628 -0.37819377 -0.030668955 0.19985309 -0.35678557 -0.28796777 -0.1962093 0.03574446
-0.2256602 -0.29169816 -0.1427321 -0.05468214 0.28661162 -0.1700264 -0.19941539 -0.34066558
-0.09619168 -0.23146969 -0.0039817914 0.17983238 -0.08046891 -0.005989966 -0.09514731 -0.2762109
-0.16150865 0.11602877 -0.016303599 -0.13562897 -0.15655856 -0.14763182 -0.15434779 -0.18547998
-0.12023955 0.05373003 -0.1087262 -0.10820303 0.23660213 0.13853787 -0.385583 -0.06285179
-0.17301477 0.061819546 -0.1321413 -0.21241565 -0.4160626 0.12802964 -0.08814982 -0.3383783
0.099968575 0.012197296 -0.005433944 0.3088052 -0.20971555 -0.13760415 -0.043541767 -0.47399676

fc2.weight f4 [128, 128]
00000000: cef6 9e3c 29ce d73d 1356 2cbd f0c2 643e
00000010: 3a1f 973c 343f 143e 092b fcbd 0f0d 183c
00000020: ed2a 8d3e fa67 b2bd aeeb 063d 1a7f 85bd
00000030: 7abb ec3c c160 603e 78d8 6f3d d513 8a3d
00000040: c9d0 18be a5d6 8bbe 6d46 983e 2856 cfbd
00000050: 9211 94bc 6093 84bd 515c 96be 82cb c83d
00000060: 63ae 9b3e 788f 13bc 1dfc 653e 3682 1e3e
00000070: b458 513e f8b1 20be b911 36bd 981d b3be
00000080: f2eb 44be 2d43 e7bb 6a60 b8bd cc62 30be
00000090: 145e 73be d873 1e3e b900 57be 8201 5b3d
000000a0: 463a 3f3b 3f7a 11bd e9e5 d23d 1989 a4be
000000b0: f625 4cbe 321d b63d 24c1 823e 5130 88be
000000c0: 02d1 af3d 03ac a33d eefc 563e fc37 a2be
000000d0: af8f 5dbe 4ab1 a2bd c621 f1bd d6ea 843d
000000e0: 6baa 5dbe b3b0 cb3d 7d26 413d f19e 5dbd
000000f0: c2ef e8bd 8d1c 82bc 0c0f 123e 6f62 143e
00000100: 5e65 853e 4926 5e3c dfde 973e a6d4 083e
00000110: 402b 303e 97a5 8b3d 4c36 98bc 7f5b e53d
00000120: f901 e8be 5aef 843e 7497 aebd 8e19 6c3e
00000130: a239 23be 9e9d 453e 4148 663e 16a8 563e
00000140: c8ad ab3d cccd 1b3e f12e b0be 0d80 a3bd
00000150: 3f4c a0be 8542 c03e 8afa 57bc 404e 393d
00000160: e3f7 b63d aaaf 38be 6c05 cabe d11f 90bd
00000170: b78a 333d 45de 813d 799b 6cbe f83d 19bd
00000180: b830 21be 3b9c 0bbe 68ee e63c 200b 7cbd
00000190: 54ee 45bd 70e4 a93c e83d 7f3e ee00 cbbe
000001a0: 35f3 40be d331 59be 3f1b 8dbd 307c 8f3e
000001b0: 9c2c 30bd bad3 38bd b84f 20bd e10f 633d
000001c0: a6d6 80bd 09c1 c83d 6cd4 e73d d121 7dbc
000001d0: c5aa 033e 252c b83c e112 073e dd88 e63d
000001e0: b396 09be 879e ebbc 4741 f6bc 9ca3 e93d
000001f0: 451d 70be 110c 11bd 6ee3 97be fb3f 2dbe
00000200: 5068 cc3c ae42 56be 3ab0 7f3e 439c 1cbe
00000210: 1dd4 f6bd 4e4b 4abe 4989 8abe 7085 fbbc
00000220: a4e1 e5be 97d5 43bd 2f72 093c 3dbc 4d3e
00000230: 2dba 31bc 2694 34be dbf8 09bc 510e 34be
00000240: 367b a43d b39f 3a3e 319f 3ebf 6e12 8f3d
00000250: d1f2 18be 94dd 65be 7990 d53d 5b18 b8bc
00000260: c723 8f3c 3c14 6f3d 957a bcbd 538c c23d
00000270: 8cac 043e cf65 debb 278c 95bd e020 013e
00000280: 136a 9fbe cd5c 31be 6951 55bd 84cb a1bc
00000290: 6760 b8be 036b 3dbd ebe5 a73d 09fc 1f3d
000002a0: 507b f3bc 5556 2dbd 445e 2cbe 4b4d 09be
000002b0: a730 01be df72 34be c4b1 1f3d 2e69 0bbd
000002c0: 9cd3 6dbd 4399 39be d2bd babe a564 aabe
000002d0: f9f5 84bc d1b8 b6be ffb7 92be 2038 83be
000002e0: 2951 7bbe ba90 c8bd d52b 0c3e f74f dbbe
000002f0: 3136 91be d19d aebe 88ea 613e e13d 37be
00000300: 9873 e1bd 6d32 b7be 60e7 11bf 22a4 c0be
00000310: 4a55 893d 3ad0 3ebe e31c 5cbb 6554 0a3e
00000320: a046 46be 5f2f 2cbe ac47 29be e0a9 91be
00000330: 7406 fc3d 7765 5cbe 0853 b13c ce1a 423d
00000340: 1afb b2bd 8324 6e3d 53e1 36be 2098 2cbe
00000350: f6a4 83be ed52 ef3b 9ebc 76bc e5c3 3fbd
00000360: ccca 183e 485f 78be 016a 1bbe b883 0cbe
00000370: e5bc c23c df62 8abc 9929 b93e 30b9 013e
00000380: 4608 1dbe 7616 62bc c06d 39be a6bf 0fbe
00000390: e8fe 97bd 5f90 883b 8e18 44be 25c4 243d
000003a0: 3dd5 32be e1fc c1bd bdb6 d8bd eef8 42be
000003b0: 76ad aabe aa61 b2bd 20b7 1dbe bbf8 95be
000003c0: 17b7 523d 7ce9 4abd 6d60 1b3d a6e9 19be
000003d0: f97a e33b a03c 80bc 2fae 8cbe 8099 96be
000003e0: 671b b4be 3144 07be 3f92 653d 44ae 2b3e
000003f0: 9a48 82be 3d77 533e 63ce a63d eedd c73d
0.019404795 0.10537369 -0.042074274 0.22339988 0.018447507 0.14477235 -0.12312896 0.009280457
0.27571812 -0.08711238 0.032939605 -0.06518383 0.02889799 0.21911909 0.05855605 0.06742064
-0.14923395 -0.27312198 0.2974123 -0.10123855 -0.018074784 -0.06473422 -0.29367307 0.09804441
0.30406484 -0.009006374 0.22459455 0.15479359 0.20443994 -0.1569289 -0.044450495 -0.34983516
-0.19230631 -0.0070575685 -0.090027645 -0.17225188 -0.23766357 0.15473878 -0.2099637 0.053468235
0.002917902 -0.035516974 0.10297758 -0.32135847 -0.19936356 0.08892287 0.2553798 -0.26599362
0.08584787 0.07991793 0.20994923 -0.31683338 -0.21636842 -0.079439715 -0.1177402 0.06490104
-0.2164704 0.09945812 0.047155846 -0.054106656 -0.11373855 -0.015882755 0.14263552 0.14490674
0.260539 0.013558933 0.29662225 0.13362369 0.17203999 0.06818693 -0.018580578 0.11199092
-0.45314005 0.2596386 -0.08524981 0.23056623 -0.15939954 0.19298407 0.224885 0.20962557
0.083827555 0.15215224 -0.34410813 -0.07983408 -0.3130817 0.3755075 -0.013182292 0.04524064
0.089339994 -0.1803576 -0.39457262 -0.070373185 0.04383346 0.06341223 -0.23106183 -0.037412614
-0.15741241 -0.13633816 0.028189853 -0.061534047 -0.04832299 0.02073881 0.24925959 -0.39649147
-0.18842776 -0.21210413 -0.068899624 0.28024435 -0.043011293 -0.045123793 -0.039138526 0.055435065
-0.06290941 0.098024435 0.11319813 -0.015449957 0.12858112 0.022481987 0.13190795 0.11256573
-0.13436393 -0.028762115 -0.030060424 0.11408159 -0.23448665 -0.035411898 -0.29665703 -0.16918938
0.024952084 -0.20923874 0.24969569 -0.15293984 -0.12052176 -0.19755289 -0.27057865 -0.030703276
-0.44898713 -0.047811117 0.00838904 0.20091338 -0.01084761 -0.17634639 -0.008421148 -0.17583586
0.08031313 0.18224983 -0.74461657 0.06985937 -0.14936377 -0.22447807 0.104279466 -0.022472551
0.017473115 0.058368906 -0.09203068 0.09499421 0.12956446 -0.006787039 -0.073021226 0.12610197
-0.31135616 -0.17320557 -0.052079592 -0.019750364 -0.3601105 -0.046244632 0.0819815 0.03905872
-0.029721886 -0.04231866 -0.16832834 -0.13408391 -0.12616216 -0.17621945 0.03898789 -0.034035854
-0.058063135 -0.18124871 -0.36472946 -0.3327991 -0.01623057 -0.3568788 -0.28656003 -0.25628757
-0.24542679 -0.097932294 0.13688596 -0.42834446 -0.28361657 -0.3410478 0.22062123 -0.17894699
-0.11008376 -0.3578066 -0.56993675 -0.37625223 0.06705721 -0.1863412 -0.0033586554 0.13508756
-0.19362879 -0.16814946 -0.16531247 -0.28449917 0.12305918 -0.21523081 0.021646038 0.047388844
-0.087393 0.05814029 -0.17859392 -0.16854906 -0.25711793 0.0073035867 -0.015059618 -0.04681768
0.14921111 -0.24255097 -0.15177156 -0.13722122 0.023771713 -0.016892849 0.3616455 0.126683
-0.15335187 -0.0137993 -0.18108273 -0.14037952 -0.074216664 0.004167601 -0.19149992 0.04022612
-0.17464156 -0.09472061 -0.105817296 -0.19040272 -0.33335465 -0.08710034 -0.15401888 -0.2929133
0.05144414 -0.049539074 0.037933756 -0.15030536 0.0069421497 -0.015653908 -0.27476642 -0.29413986
-0.35177156 -0.13209607 0.056047674 0.16765696 -0.25446016 0.20650955 0.08144834 0.097591266

fc2.bias f4 [128]
00000000: 1a55 6a3e cf82 6bbe fad5 c8bd 61ec 18bd
00000010: 41c1 433e c0c0 a6be b6af 63be 1a3f 09be
00000020: d517 febd fa95 fcbd 2162 c83c 90c9 963c
00000030: d1b3 a63d d9cc b0bc 6457 5cbe 50fa b83d
00000040: 612f bcbe 9e7a 003d c6a0 9ebd 051e f0bd
00000050: cd3d 06be afbf f9bd 7e8f 25be 45df a13e
00000060: 10bb fdbe 921b 4a3d d9b9 45bc ab22 603d
00000070: e0bc 3a3e 289d b93b 8e03 123e b50e 47be
00000080: 526c 0f3d aed2 c93d d217 dfbd 02db 273e
00000090: dc38 323e fa6f a73c 6b11 12bd 908d 9d3c
000000a0: 0ded 6fbe 1220 4fbe f86c ddbe 7c82 78be
000000b0: 5dbc 723d c1ef 553c 3ffb 103e 7072 61be
000000c0: b6bf 1cbe 7235 4bbd 226d f0be 664b a3bd
000000d0: 0eca 08be cd8d 66bd ac3a b1bd 9daf 313e
000000e0: d49e 613d 0982 493e db3a 2a3e 2ccd 2fbd
000000f0: 3eb7 3abe 3957 e5bc 115a aebe deb9 19be
00000100: 85ab 32be 00b2 3cbe d94f e83d c0e2 fdbe
00000110: c87e 9ebe 1a5b 38be 504e aabe d383 853c
00000120: 8a2b 753d f66b b9bd 403b b93d 92cb e43d
00000130: 4209 bfbe d4e8 fc3c 0c16 5bbe 5473 59bb
00000140: c7a0 eebc 4ae8 52bd a25a d93c 862a 15bb
00000150: e7cf 62bc 41ef dbbb ef3b 37bc 091b e33c
00000160: 4d92 7dbd e633 cabd 563b a23d 8e72 83bd
00000170: ab6e 093d fea1 9dbd bbba 1c3d f4ec 2b3d
00000180: 5317 88bd 11d1 ca3d 361d b9be be43 8c3e
00000190: f80b 813d c704 2abe 1e4c 60be 9f6c ecbd
000001a0: 3683 5c3e d6a0 5bbe 808a a0bc c57b a7bc
000001b0: f4b8 093c 3ad7 45be 99ba 5abe 6857 9ebd
000001c0: 741c e6bd f3c3 11bd 12ad 763b 1046 d7bd
000001d0: a1c3 253e 43a5 b5bc 7a54 883d 208d 19be
000001e0: 339f 46be 5b14 e13c 642e 6abc 822d 93bd
000001f0: a145 4d3d f5a4 84be b11e 01be 2ef2 5abe
0.22884026 -0.22999118 -0.09806438 -0.037334803 0.1911669 -0.32568932 -0.22234997 -0.13402978
-0.12406889 -0.12333293 0.024460854 0.01840666 0.08139766 -0.021582054 -0.21517712 0.09032118
-0.36754897 0.031366937 -0.07745509 -0.11724476 -0.13109513 -0.12194764 -0.16168019 0.31615654
-0.4955678 0.0493427 -0.012068235 0.054720562 0.18236113 0.0056644864 0.14259169 -0.19439204
0.03501541 0.09854637 -0.10893215 0.16392139 0.17404503 0.020439137 -0.035661142 0.019232541
-0.23430271 -0.20227078 -0.432472 -0.24268526 0.05926167 0.01305765 0.14158343 -0.2201631
-0.15307507 -0.049611516 -0.46958262 -0.079733655 -0.13358328 -0.056287576 -0.08653769 0.17352147
0.05508311 0.1967851 0.16624014 -0.042920277 -0.18233964 -0.027995693 -0.3405309 -0.15012309
-0.17448242 -0.18427277 0.11343355 -0.4958706 -0.309561 -0.18003502 -0.33262873 0.01629821
0.059855975 -0.09053795 0.09044504 0.111716405 -0.3731175 0.03087274 -0.21395129 -0.0033180313
-0.029129399 -0.05149106 0.026532475 -0.0022760942 -0.013843513 -0.006711871 -0.011183723 0.027722852
-0.0619071 -0.0987318 0.07921474 -0.06418334 0.033552807 -0.07696913 0.038264018 0.041974023
-0.06645074 0.099031575 -0.361551 0.27395433 0.06301111 -0.16603385 -0.21904036 -0.11544155
0.21534428 -0.21448073 -0.019597292 -0.02044476 0.008405913 -0.19320384 -0.21360244 -0.07731515
-0.11235896 -0.035587262 0.003763978 -0.1051141 0.16187908 -0.02217353 0.066567376 -0.14995241
-0.19396667 0.027475527 -0.014293287 -0.07186414 0.05011523 -0.25907102 -0.12609364 -0.21381447

fc3.weight f4 [2, 128]
00000000: 04c4 9dbd 665f 0a3e af66 28bc 3aed b83e
00000010: fe03 0a3e cac7 dcbe 4e68 76bc 43e5 eebe
00000020: bdfe 303e fa45 02bf 26bd 443e 7a56 973e
00000030: 272d 783e b6c2 cf3d a181 a5be 2e05 863e
00000040: 9955 11be e62d 903e 978b bd3e 8300 bbbe
00000050: 650b 1c3f 09aa debd c0bc 0d3e 0902 153e
00000060: 0269 99be 642d b73d 0ff2 6d3e fb0b 18bc
00000070: b3d5 ba3e e3f6 433e f917 f93e 3f81 8b3b
00000080: f0ff abbe fa19 2d3e c7f6 003d 1aef d83c
00000090: 5668 833e adcd 8e3c a2a1 983c 5213 303f
000000a0: 3c86 60be 9add 1ebe e186 1abf 4acd adbe
000000b0: c76c ad3e d278 f2be eaf1 213e 7bbf d53d
000000c0: cc73 aabd ee6d f5bd f13f 95be 7435 1a3c
000000d0: 15b5 d3bd a921 13bc 727a 88be f0b4 0e3d
000000e0: e2f8 3a3e 2b17 af3e daf8 46bd 2b26 0c3c
000000f0: 7ffa 8fbe bf55 6a3d 232b e6be 1253 8c3e
00000100: ace6 1fbe f274 3c3d 23de c93e 2a96 f9be
00000110: dcf2 9abd dc33 c6be acb3 35be d978 e33e
00000120: 9e67 46bd 43c5 683e 479f 05bf da55 8b3e
00000130: 055d e43e ba50 3f3e 8415 113d af54 f43e
00000140: fd54 953e 6678 d1bb d550 a7be 7cc7 6a3d
00000150: 0bce ad3e c309 843e 08f5 953e 013b 25be
00000160: f0dd 143c e5ea 7bbc ac49 9d3e fae3 86be
00000170: 82e8 0d3c c9f2 113f 897d 0c3e 6289 27bf
00000180: 330a 423d f3ac 9e3e d49f 973e 2bf1 abbe
00000190: d0f4 bcbb 1b5c 56bc e1c2 88be a871 b1be
000001a0: a44c d23e cd16 ccbd 8f7e a1be 2b2b 213d
000001b0: e4d5 e13e 6657 d139 6d20 89b9 7acc 3fbe
000001c0: 870a 963b 7111 943e 28fc 1e3e e453 e2bc
000001d0: fc7e 183e 8598 593e 597f e83e 1569 efbe
000001e0: af05 bd3d b348 593d 3da9 5b3a 5682 573e
000001f0: 89e1 e1bd 6d40 cf3e 5b53 42be 9fba 19bf
00000200: 17ac 4fbe 95a5 fabe 7eed 9abd 5d12 03bf
00000210: 68d1 143e 0761 a2be 8a2a e93e 0cf9 b73e
00000220: fae6 e6be b25e 623c dbc3 bbbe 09aa 403e
00000230: 7ef7 673e d28f ebbe f947 cf3e 6010 e83e
00000240: 91a3 cf3d f756 423e 5114 d5be 7eaf 90be
00000250: 8ad1 25bd a994 cd3e 0b11 22bf e80b 923e
00000260: ed88 503e 734f 93bb 153e 0d3d c1ae e83e
00000270: f347 8f3e cdd1 3ebb 2985 983e 53d0 9cbc
00000280: a382 0ebf 4d6c 07be 7f00 48bc b2c9 2abe
00000290: 6668 0f3e 24d4 07bc 74cf 7ebd 634a d6be
000002a0: ee60 e23d c8a8 2e3e 5e10 d13d 1cf4 adbe
000002b0: a9b8 3bbd 316c 3fbe 4105 543f 9c03 d8be
000002c0: b66c e5be be9d 8cbe cae5 5b3d 4f9e 42be
000002d0: 6be5 793e fec4 cc3e f14a 09bf 53a0 f4be
000002e0: 0b51 17be 009e bd3c 502f 8abe 1225 a1bd
000002f0: 8f4f b33e 4f2b 2bbd 91b8 8fbd c5fa 95be
00000300: 1da9 bfbe ef49 d5be ed51 323e d95e 6e3b
00000310: df8d 073f 5e40 b63d 41f3 c3be e81b da3c
00000320: afe7 58bd 6852 fa3c 5c94 c2be c40b 373d
00000330: 1c7f a2bc 1353 0c3e ab5e 183f 9023 76be
00000340: 6644 913b 22f6 bbbd a16a 61bd eaaa 2dbf
00000350: 5309 80be a8e9 493d 494e 51bb 0063 d1be
00000360: a24e babd 3382 2e3f f5a5 383f b131 f7bc
00000370: 7820 04bd ac3e 8a3e d54c 853c b9f3 033d
00000380: 0493 07bf ab12 31be b615 e9be 0a84 fb3d
00000390: 650b 74bd fae2 8cbd 4a31 8b3d 115e cabd
000003a0: 98bd 0c3d 6d3e 143f 6feb be3e 4766 0a3d
000003b0: 8b92 c1bd 9bb5 00bd 54e9 25bc 1737 2b3e
000003c0: da8d 923a 0a6f 903e 556f 41bc b972 70be
000003d0: c3c4 b1be 06c2 253e 86b2 503d 1bbd f13d
000003e0: 2dbf 7c3e 1c77 e1be 5d98 a0bd dff9 8fbe
000003f0: 64a8 74bd c08e 0dbf 88b4 ac3e f18e b03d
-0.07703403 0.13512954 -0.010278388 0.3611849 0.13478085 -0.43121177 -0.015039517 -0.46659288
0.17284675 -0.50888026 0.1921278 0.29558164 0.24235974 0.1014456 -0.32325462 0.26175827
-0.14192809 0.28160018 0.3702056 -0.36523828 0.60954887 -0.108722754 0.13841534 0.14551558
-0.29962927 0.089442044 0.2323687 -0.0092802 0.36491165 0.19137149 0.48651102 0.0042573507
-0.33593702 0.1690444 0.031485345 0.0264812 0.2566554 0.017432058 0.01863176 0.6877948
-0.21926206 -0.15514222 -0.6036206 -0.33945686 0.33872053 -0.47357804 0.15814939 0.104369126
-0.08322868 -0.11983858 -0.29150346 0.009412158 -0.10337273 -0.008980193 -0.26655918 0.034840524
0.18259004 0.34197363 -0.048577167 0.008554022 -0.281208 0.05721068 -0.44954786 0.27407128
-0.15615338 0.046009965 0.3942729 -0.4874738 -0.07565853 -0.3871144 -0.1774432 0.44428137
-0.04843866 0.227315 -0.5219616 0.27213937 0.44602218 0.18683138 0.03542091 0.47720858
0.29166403 -0.0063925264 -0.32678857 0.05731915 0.3394626 0.25788698 0.29288507 -0.1613579
0.009086117 -0.015375827 0.3072027 -0.26345807 0.008661391 0.57011086 0.13719763 -0.65444005
0.047373008 0.30991325 0.29614127 -0.33582434 -0.0057664886 -0.013083483 -0.2671118 -0.34657025
0.41074097 -0.099652864 -0.3154187 0.03934781 0.44108498 0.00039928703 -0.00026154835 -0.18730345
0.0045788917 0.28919557 0.15525877 -0.027627893 0.1489219 0.21249588 0.4540966 -0.4675986
0.092296 0.053047847 0.00083794055 0.21045813 -0.110293455 0.4047884 -0.1897711 -0.60050386
-0.20280491 -0.48954454 -0.07564829 -0.51199895 0.14533007 -0.3171465 0.45540267 0.35932195
-0.45098096 0.013816522 -0.36672863 0.18814863 0.22653005 -0.46008164 0.40484598 0.45324993
0.1013862 0.18978487 -0.41617063 -0.2825889 -0.040483035 0.4015248 -0.63307256 0.2852471
0.20364733 -0.004495555 0.034483034 0.45445827 0.2798458 -0.002911675 0.29789093 -0.019142305
-0.55668086 -0.13224907 -0.0122071495 -0.16678503 0.14004669 -0.008290324 -0.06220956 -0.41853628
0.11053644 0.17056572 0.102082 -0.33975303 -0.045830403 -0.18693615 0.82820517 -0.42190254
-0.44809502 -0.27464098 0.05368594 -0.19005702 0.24403922 0.39994043 -0.53629977 -0.47778568
-0.14777009 0.02314663 -0.26989222 -0.07868399 0.35021636 -0.04178935 -0.07017625 -0.29292884
-0.3743371 -0.4165797 0.17414065 0.0036372452 0.52950853 0.08898996 -0.38271526 0.026624635
-0.052955326 0.030556872 -0.38003814 0.044688955 -0.019836001 0.13703565 0.5951945 -0.24037004
0.0044332026 -0.091778055 -0.05503333 -0.6783892 -0.25007114 0.049295098 -0.003193753 -0.40895844
-0.09097029 0.6816742 0.7212823 -0.030175062 -0.032257527 0.2700094 0.016271988 0.032214854
-0.52958703 -0.17292278 -0.45524377 0.12281044 -0.05958118 -0.0687923 0.067965105 -0.09881223
0.0343605 0.57907754 0.37288997 0.033788946 -0.09451779 -0.031423192 -0.010126431 0.16720234
0.0011181191 0.28209716 -0.011806329 -0.23481263 -0.3472043 0.16187295 0.050951503 0.11803647
0.24682303 -0.44036186 -0.07841561 -0.28120324 -0.059730902 -0.55295944 0.33731484 0.08621014

fc3.bias f4 [2]
00000000: 4477 12bc 4438 07be
-0.008939568 -0.13205057
