checkpoint_critic0.pth (torch_old, 81387 bytes, 5 tensors)

fcs1.weight f4 [128, 24]
0.044531353 0.072089106 0.013474983 -0.03287759 0.097969845 0.52014774 -0.019700408 0.101579085
-0.04435635 0.00039860752 -0.05296147 -0.015038673 -0.079719014 0.55457 0.06376025 0.013653653
-0.10733834 0.0010581368 0.007181903 0.024909973 -0.2233041 -1.6531671 0.014805059 0.0036770718
-0.010587934 0.770031 -0.07558067 -0.081524685 0.020359699 -0.42761755 0.019176912 0.03320618
-0.09024481 0.6158524 0.07683183 -0.08058458 0.21023056 -0.7398254 -0.0074458197 -0.08884782
0.0006612078 0.6280051 0.013727136 -0.012889663 0.0965714 -0.6395744 0.005845323 -0.033677164
0.10348869 0.35765237 0.002016087 -0.027880767 0.09410427 -0.09488598 0.04673907 -0.034704078
-0.058390774 0.06605805 0.041152123 -0.06729385 -0.12698948 -0.005281526 0.0048115817 -0.13798696
-0.19034912 0.052047927 0.00488649 0.083234005 -0.025195714 -0.7302082 -0.029357405 -0.08078035
0.19408181 0.77771044 -0.015572526 -0.14540039 0.066040464 -0.3746885 -0.03112308 -0.22699542
-0.119313985 0.5558119 -0.054037668 -0.16200927 -0.0807484 -0.14644086 0.011551025 -0.23586914
0.05064039 0.45691052 0.0143179605 -0.04336689 -0.17650893 -0.03655743 0.02829193 -0.02006658
0.12146128 -0.13587342 0.036816854 -0.108193 -0.19985536 -0.7237947 0.013161911 -0.0743529
0.17108378 -0.0995434 0.10425412 0.043428384 -0.36037505 -0.89000136 0.038067292 0.03713385
0.35233116 -0.06187955 0.011029597 0.13076568 -0.18117161 -0.62865067 0.0063027637 0.07178671
0.31072938 0.34502766 -0.024596613 0.18439683 0.08701098 0.05820139 0.040069077 0.2299644
0.30360782 0.44876596 -0.1065422 -0.21487206 -0.07152458 0.08286633 -0.008501024 -0.12479335
0.3490388 0.27055177 -0.0364808 -0.12378387 -0.06646881 0.055424646 0.07526823 -0.06888749
0.23907858 0.42787674 -0.119439594 0.02136704 -0.03776595 -0.052322503 -0.02489533 -0.06694151
0.5497362 0.68018204 0.019532936 0.043942112 -0.024615742 -0.24526018 0.050553862 -0.0442505
0.41225827 0.7841341 -0.051015463 0.3856535 -0.09474337 -0.4227032 0.010658227 0.39830863
0.07321187 0.47023925 0.04939072 0.09185238 -0.2158015 0.003667269 -0.042111486 -0.029811354
0.28161183 0.43623102 0.005207485 -0.04990728 -0.19497943 -0.32088733 0.015303012 -0.08023562
0.4101299 0.4622606 0.004642293 0.13919711 -0.46630642 -0.8019959 0.032053187 0.073058456
0.022344003 0.17616725 -0.07867007 0.02008151 -0.0033276875 -0.2801328 0.03336861 0.015114182
-0.04231167 0.19170256 -0.047549237 -0.011599544 0.29746047 -0.22608311 -0.057995785 -0.044216767
0.016657356 0.20823961 0.0019135631 -0.35649613 -0.13430953 0.0520232 -0.04404576 -0.29880378
0.33005598 0.3594238 0.08933619 -0.26764932 0.055656414 -0.35564205 -0.052106854 -0.2327783
0.51927036 0.32351673 0.022053206 0.06913213 -0.08435421 -0.3380358 0.07989828 0.1036313
0.29024678 0.34292737 -0.03148784 0.12257635 -0.1641209 -0.5555228 -0.021297786 0.021234456
0.1602095 0.25883693 0.05375569 0.015001809 -0.15306856 -0.043461118 0.002351397 0.045637578
0.09619949 0.3273582 0.061283138 0.038001847 -0.08213899 -0.35705903 -0.043084648 -0.045214545
00000000: 8266 363d 74a3 933d 2dc6 5c3c a7aa 06bd
00000010: 6aa4 c83d 6728 053f c062 a1bc b208 d03d
00000020: 01af 35bd 32fc d039 20ee 58bd c464 76bc
00000030: b943 a3bd 4df8 0d3f bc94 823d 92b3 5f3c
00000040: 34d4 dbbd 2eb1 8a3a 2b56 eb3b 0010 cc3c
00000050: d4a9 64be fb9a d3bf eb90 723c 07fb 703b
00000060: 0479 2dbc c020 453f 0aca 9abd 6af6 a6bd
00000070: 62c9 a63c b0f0 dabe e618 9d3c 3403 083d
00000080: 45d2 b8bd 81a8 1d3f 025a 9d3d 8709 a5bd
00000090: ae46 573e 3365 3dbf 10fc f3bb d9f5 b5bd
000000a0: e854 2d3a f1c4 203f c8e7 603c 2a2f 53bc
000000b0: 3ac7 c53d 26bb 23bf 208a bf3b 11f1 09bd
000000c0: e1f1 d33d 361e b73e 5420 043b 3566 e4bc
000000d0: bdb9 c03d 9553 c2bd 7871 3f3d dd25 0ebd
000000e0: 2a2b 6fbd 7149 873d 218f 283d 5cd1 89bd
000000f0: 8809 02be a710 adbb 79aa 9d3b 744c 0dbe
00000100: e1ea 42be 3530 553d d91e a03b 9776 aa3d
00000110: 3e67 cebc edee 3abf f17e f0bc 2b70 a5bd
00000120: 62bd 463e 0818 473f e823 7fbc d7e3 14be
00000130: 3940 873d 2cd7 bfbe d4f5 febc 7d71 68be
00000140: e45a f4bd b049 0e3f 9a56 5dbd c2e5 25be
00000150: 6b5f a5bd 98f4 15be 8340 3d3c ae87 71be
00000160: 4c6c 4f3d 2df0 e93e e195 6a3c 7ba1 31bd
00000170: c2be 34be 3ebd 15bd 7ac4 e73c ab62 a4bc
00000180: b1c0 f83d 6722 0bbe 45cd 163d 4b94 ddbd
00000190: e2a6 4cbe 9c4a 39bf 0ea5 573c 5546 98bd
000001a0: 9630 2f3e 69dd cbbd 2f83 d53d f6e1 313d
000001b0: 1483 b8be 21d7 63bf 73ec 1b3d aa19 183d
000001c0: c064 b43e 6975 7dbd 7cb5 343c 70e7 053e
000001d0: 0d85 39be 40ef 20bf 6a87 ce3b e904 933d
000001e0: ec17 9f3e 77a7 b03e d67e c9bc 86d2 3c3e
000001f0: d032 b23d 9564 6e3d 791f 243d ca7b 6b3e
00000200: 7c72 9b3e a7c4 e53e cc32 dabd 6c07 5cbe
00000210: 7b7b 92bd d3b5 a93d e147 0bbc a893 ffbd
00000220: 37b5 b23e c385 8a3e e46c 15bd 6682 fdbd
00000230: cd20 88bd f404 633d 3b26 9a3d e214 8dbd
00000240: 04d1 743e a912 db3e bf9c f4bd ee09 af3c
00000250: 78b0 1abd 1f50 56bd 4bf1 cbbc a118 89bd
00000260: 83bb 0c3f 6920 2e3f 8903 a03c a5fc 333d
00000270: f4a6 c9bc 7c25 7bbe 9111 4f3d 0340 35bd
00000280: 8413 d33e 03bd 483f 97f5 50bd 6074 c53e
00000290: d008 c2bd 8e6c d8be d89f 2e3c 1cef cb3e
000002a0: 1bf0 953d 33c3 f03e ec4d 4a3d 1a1d bc3d
000002b0: 12fb 5cbe 9056 703b 187d 2cbd f136 f4bc
000002c0: 6d2f 903e ac59 df3e 8da3 aa3b 936b 4cbd
000002d0: b0a8 47be 584b a4be 7cb9 7a3c 9352 a4bd
000002e0: 8cfc d13e 6cad ec3e 601e 983b b089 0e3e
000002f0: b7bf eebe 9a4f 4dbf 344a 033d ac9f 953d
00000300: c50a b73c 3065 343e c61d a1bd fb81 a43c
00000310: 5515 5abb 916d 8fbe 86ad 083d 79a1 773c
00000320: 004f 2dbd ad4d 443e fdc2 42bd 040c 3ebc
00000330: bd4c 983e 5582 67be fd8c 6dbd a41c 35bd
00000340: 0275 883c c43c 553e 86d0 fa3a a986 b6be
00000350: 7088 09be 4716 553d 5469 34bd cffc 98be
00000360: 19fd a83e 6506 b83e e4f5 b63d 5509 89be
00000370: fbf7 633d b716 b6be ff6d 55bd 6f5d 6ebe
00000380: e7ee 043f fca3 a53e eda8 b43c 2595 8d3d
00000390: e6c1 acbd 0713 adbe b6a1 a33d a63c d43d
000003a0: 3a9b 943e 2d94 af3e 65f9 00bd 4f09 fb3d
000003b0: 4f0f 28be be36 0ebf b278 aebc e2f3 ad3c
000003c0: f60d 243e 4686 843e ed2e 5c3d 26ca 753c
000003d0: 01be 1cbe 4904 32bd e519 1a3b 78ee 3a3d
000003e0: 3d04 c53d 7e9b a73e 0704 7b3d d3a7 1b3d
000003f0: 7d38 a8bd 71d0 b6be 8779 30bd e332 39bd

fcs1.bias f4 [128]
0.5287343 0.10481027 0.09724355 -0.3722675 -0.02766229 -0.08891142 -0.074548736 -0.033511337
-0.022286365 -0.104968384 -0.013881282 0.11233984 -0.20927644 -0.0150886895 -0.384322 -0.25480968
0.09839987 -0.1404185 0.19168276 0.0409272 -0.25244293 -0.13548149 -0.7325939 -0.12776698
-0.04689586 0.07063116 -0.013001664 -0.48029396 -0.46456462 0.19242886 -0.3713222 0.030908726
0.30747083 0.16316278 -0.6450857 -0.3760901 0.12854484 0.001988062 -0.018820347 -0.31826177
-0.20261012 -0.2544757 0.005576593 -0.46987054 -0.1383705 -0.12275599 0.054778595 -0.12879437
0.1287078 -0.39526078 -0.6439307 -0.035392046 -0.016907167 -0.049628787 0.03699165 -0.22817308
0.06069782 -0.24978992 -0.5326566 -0.15844882 0.08344118 -0.0799476 -0.046609677 0.17554118
-0.05443031 -0.10464174 -0.46416384 0.10427579 0.28588343 -0.09270536 0.18430707 0.1401058
-0.43124563 -0.08936895 -0.16088006 0.15986836 -0.3806506 -0.18574981 -0.35991752 0.08367063
-0.3989022 -0.12953079 -0.25466454 0.09019625 0.1974575 -0.23056908 -0.04451905 -0.8371707
-0.28183335 -0.20400302 -0.13089527 -0.07527712 -0.3517366 -0.44748867 -0.35052183 -0.825008
-0.21808705 0.21059145 -0.080771014 -0.38589644 -0.08978808 -0.15724748 0.0021340272 -0.76796585
-0.28578797 -0.23733862 -0.12012732 -0.13432144 -0.19225225 0.25959858 -0.14942756 -0.054211725
-0.21023528 0.084844 -0.17669937 -0.06443058 -0.688166 -0.14234456 0.22764131 -0.6248708
0.029117936 -0.5193759 0.24651399 -0.5350654 0.2469453 -0.18617906 -0.20679945 -0.6808848
00000000: 225b 073f c4a6 d63d a027 c73d d999 bebe
00000010: 079c e2bc 3117 b6bd 02ad 98bd 2f43 09bd
00000020: e591 b6bc aaf9 d6bd 516e 63bc 6e12 e63d
00000030: 904c 56be 8d36 77bc dac5 c4be 6a76 82be
00000040: df85 c93d dec9 0fbe 7c48 443e 48a3 273d
00000050: 3340 81be a9bb 0abe 468b 3bbf 59d5 02be
00000060: e015 40bd 12a7 903d ee04 55bc 17e9 f5be
00000070: 6adb edbe 120c 453e f21d bebe 4c34 fd3c
00000080: d16c 9d3e 2514 273e 5624 25bf e28e c0be
00000090: 42a1 033e 254a 023b 212d 9abc 35f3 a2be
000000a0: 0779 4fbe a44a 82be dabb b63b df92 f0be
000000b0: ffb0 0dbe 7e67 fbbd 855f 603d ace2 03be
000000c0: facb 033e 9f5f cabe a4d8 24bf 40f7 10bd
000000d0: e680 8abc 8e47 4bbd 8e84 173d 34a6 69be
000000e0: 479e 783d eec8 7fbe 2f5c 08bf 6840 22be
000000f0: 36e3 aa3d 91bb a3bd cae9 3ebd 11c1 333e
00000100: 51f2 5ebd 694e d6bd e2a6 edbe 8c8e d53d
00000110: 505f 923e 4fdc bdbd feba 3c3e e577 0f3e
00000120: 3acc dcbe 1107 b7bd bebd 24be 88b4 233e
00000130: a3e4 c2be 3335 3ebe 1c47 b8be 825b ab3d
00000140: e93c ccbe b8a3 04be 6463 82be d0b8 b83d
00000150: 4d32 4a3e 4d1a 6cbe 9b59 36bd d250 56bf
00000160: 764c 90be 2be6 50be 6909 06be e42a 9abd
00000170: d216 b4be 3c1d e5be 9977 b3be b933 53bf
00000180: 3652 5fbe 49a5 573e 466b a5bd 3894 c5be
00000190: d0e2 b7bd 7c05 21be 09db 0b3b 6999 44bf
000001a0: cd52 92be e508 73be 5005 f6bd 8f8b 09be
000001b0: c6dd 44be 1bea 843e 8a03 19be 1d0d 5ebd
000001c0: eb47 57be b1c2 ad3d aef0 34be 2ef4 83bd
000001d0: a62b 30bf c6c2 11be ce1a 693e 88f7 1fbf
000001e0: bd88 ee3c d2f5 04bf 2a6e 7c3e 0cfa 08bf
000001f0: 3bdf 7c3e b9a5 3ebe 3cc3 53be 774e 2ebf

fc2.weight f4 [128, 130]
0.103657685 -0.064408325 0.0061572273 0.049984965 -0.008255682 0.052270062 -0.076989844 -0.017030409
-0.058351856 -0.025103373 0.035155155 -0.003225665 -0.62103844 -0.15852182 -0.040849302 0.035106204
-0.0046340907 -0.20345208 -0.019832652 -0.25530368 0.031386174 0.046367586 -0.24412808 0.16290537
-0.20150013 -0.23090577 -0.03518399 -0.19699112 -0.13195431 -0.07736583 -0.13436836 -0.48674214
-0.08261075 -0.21284264 -0.034656703 0.05180649 -0.021337675 0.019170713 0.171557 -0.21529886
-0.05484352 -0.023634382 -0.18217327 0.030975465 -0.0026950613 -0.12940788 -0.033060957 -0.12084284
-0.13846578 -0.033678308 -0.083319485 -0.4222669 0.04467379 0.18042924 0.095674604 -0.21918947
-0.34489644 0.017430613 -0.084919065 0.013705218 -0.22929625 0.17836729 0.06573556 -0.00043367856
-0.030190988 -0.096729435 0.059858885 -0.12449986 -0.18439132 -0.09608581 -0.099478126 -0.16287662
-0.015699709 0.011565389 0.06809585 0.18430918 0.026079373 0.11720629 -0.21909201 -0.46437004
-0.2678623 -0.056859985 0.14957051 -0.031432472 -0.007878553 -0.041917216 -0.24085139 -0.052088458
0.09605835 0.012249207 -0.027704768 -0.0495943 -0.17133486 -0.09638633 -0.18858145 0.025548244
0.016559985 0.111748695 0.25395802 -0.12821014 -0.18084481 0.08053008 -0.3544543 -0.028407414
-0.0669049 -0.13811462 -0.32867754 -0.006516811 0.04477128 -0.13948208 0.013246769 0.004050896
-0.23081942 -0.07904009 0.04965883 -0.078264 -0.087589405 -0.13133349 0.090578265 -0.10026696
0.08603297 -0.41188064 -0.010290629 0.0887382 -0.05033605 -0.1255296 -0.00899159 0.026155561
0.8209693 -0.0029958244 -0.055111203 0.049871005 -0.023563946 -0.03917229 0.002539794 0.013856171
-0.04742185 0.042419624 -0.0024432444 -0.10328185 0.004262356 0.007917949 -0.07445179 -0.02345593
0.012444902 -0.029542292 0.004527322 -0.016345631 -0.11287434 -0.08514439 0.0025314942 0.03697446
-0.117212795 0.030839 -0.024772666 0.057729654 -0.041578114 0.003922888 0.038642082 0.018196741
-0.11833351 -0.04294912 -0.08854403 -0.014735671 -0.017149061 0.013616636 -0.024253469 -0.035311364
0.035978246 -0.010514275 -0.02421328 -0.0182311 -0.050075818 0.04885639 -0.04042875 -0.017437788
-0.068050794 0.022875562 -0.0636847 0.025561696 -0.10328721 -0.0710805 -0.015215428 -0.15430138
0.061433166 0.03957131 0.031752948 -0.009948756 -0.10249961 -0.0036674766 -0.061774056 0.028744418
-0.10978239 -0.04932225 -0.06754009 -0.048611816 0.011683081 -0.08985639 0.021650285 -0.13520682
-0.06016189 -0.111442484 0.06914581 -0.03007718 -0.0038256692 -0.025670236 -0.068011545 0.0013516551
0.0013322438 -0.017416768 -0.098558016 -0.0061061485 -0.08524042 -0.0028960046 -0.03230197 -0.03463343
-0.09192841 0.046729814 -0.014807954 -0.08464068 -0.07172739 0.03947369 -0.003630138 -0.07773911
-0.08951774 0.05424236 -0.043059565 0.010528265 -0.09421635 -0.0077809547 0.05943359 -0.010282773
0.023331229 -0.009542082 0.015752321 -0.06538473 -0.015221655 -0.010604774 -0.070960134 -0.045860402
-0.07334499 0.024159947 -0.05486098 -0.022722932 -0.08816454 0.039984215 0.028828606 0.02222533
0.016923146 -0.07847026 -0.07108325 -0.021615818 -0.0596716 0.032012824 0.028890958 -0.074380495
00000000: 7b4a d43d 83e8 83bd 91c2 c93b 09bd 4c3d
00000010: d742 07bc 2219 563d daac 9dbd 5b83 8bbc
00000020: 5b02 6fbd 97a5 cdbc dafe 0f3d ae65 53bb
00000030: 60fc 1ebf 8b53 22be 9951 27bd 86cb 0f3d
00000040: 92d9 97bb be55 50be 1678 a2bc 2ab7 82be
00000050: ca8e 003d f0eb 3d3d b6fc 79be aad0 263e
00000060: 0d56 4ebe 9072 6cbe 161d 10bd 0ab8 49be
00000070: 081f 07be fa71 9ebd dc97 09be 4436 f9be
00000080: d32f a9bd 6cf3 59be 30f4 0dbd 0b33 543d
00000090: 59cc aebc e60b 9d3c a3ac 2f3e 4e77 5cbe
000000a0: 99a3 60bd e49c c1bc a18b 3abe 42c0 fd3c
000000b0: a09f 30bb 8083 04be ed6a 07bd 737c f7bd
000000c0: f9c9 0dbe 44f2 09bd 68a3 aabd 5e33 d8be
000000d0: ddfb 363d 71c2 383e 0cf1 c33d 3473 60be
000000e0: 4496 b0be a5ca 8e3c 0cea adbd da8b 603c
000000f0: a3cc 6abe eaa5 363e 5ea0 863d 5a5f e3b9
00000100: 1753 f7bc 151a c6bd 972e 753d c8f9 febd
00000110: 14d1 3cbe a3c8 c4bd 30bb cbbd 21c9 26be
00000120: ad9c 80bc c27c 3d3c d675 8b3d 8cbb 3c3e
00000130: 69a4 d53c da09 f03d a859 60be e9c1 edbe
00000140: 3f25 89be 04e6 68bd 0329 193e 56bf 00bd
00000150: 0c15 01bc 63b1 2bbd bfa1 76be b55a 55bd
00000160: 3dba c43d e6b0 483c 1cf5 e2bc 6523 4bbd
00000170: 6872 2fbe 3266 c5bd 7f1b 41be 8d4a d13c
00000180: cea8 873c 80dc e43d c906 823e 8549 03be
00000190: 622f 39be f4ec a43d 097b b5be aab6 e8bc
000001a0: 7005 89bd eb6d 0dbe 6c48 a8be f98a d5bb
000001b0: 1762 373d 64d4 0ebe fa08 593c 61bd 843b
000001c0: ed5b 6cbe c5df a1bd 0f67 4b3d e048 a0bd
000001d0: 1362 b3bd 497c 06be 1981 b93d c458 cdbd
000001e0: 0e32 b03d 05e2 d2be 079a 28bc 60bc b53d
000001f0: 2d2d 4ebd d58a 00be 7651 13bc 3044 d63c
00000200: 0b2b 523f 9855 44bb 49bc 61bd 8a45 4c3d
00000210: 2d09 c1bc 2073 20bd ac72 263b fe04 633c
00000220: 6a3d 42bd 33c0 2d3d d71e 20bb 6f85 d3bd
00000230: 3cab 8b3b 49ba 013c 2e7a 98bd a726 c0bc
00000240: b4e5 4b3c ad02 f2bc ee59 943b 46e7 85bc
00000250: a92a e7bd 2f60 aebd 6de7 253b 8872 173d
00000260: 430d f0bd 12a2 fc3c 0cf0 cabc ee75 6c3d
00000270: d04d 2abd 928b 803b 2947 1e3d 5511 953c
00000280: d758 f2bd 6beb 2fbd 9356 b5bd e26d 71bc
00000290: 307c 8cbc 5018 5f3c 36af c6bc a6a2 10bd
000002a0: ed5d 133d 1144 2cbc ee5a c6bc 6359 95bc
000002b0: 4d1c 4dbd a31d 483d 9e98 25bd b1d9 8ebc
000002c0: 375e 8bbd 8865 bb3c 206d 82bd c366 d13c
000002d0: 3f88 d3bd a792 91bd 214a 79bc 2e01 1ebe
000002e0: 58a1 7b3d 8715 223d 610f 023d 1b00 23bc
000002f0: 51eb d1bd 0c5a 70bb cb06 7dbd 6a79 eb3c
00000300: 97d5 e0bd 2106 4abd 7552 8abd 2f1d 47bd
00000310: 656a 3f3c a106 b8bd f05b b13c a873 0abe
00000320: 506c 76bd f53b e4bd 529c 8d3d 6b64 f6bc
00000330: 14b8 7abb 634a d2bc a349 8bbd 052a b13a
00000340: af9e ae3a 9cad 8ebc c9d8 c9bd 1616 c8bb
00000350: 8892 aebd e5ca 3dbb 124f 04bd c9db 0dbd
00000360: f644 bcbd c367 3f3d 109d 72bc 1858 adbd
00000370: cfe5 92bd 2aaf 213d 9ce7 6dbb af35 9fbd
00000380: 1455 b7bd 3d2d 5e3d 3a5f 30bd be7e 2c3c
00000390: 80f4 c0bd 61f7 febb a370 733d 1379 28bc
000003a0: 2221 bf3c 6556 1cbc 030b 813c 6ee8 85bd
000003b0: 4064 79bc a5bf 2dbc 8c53 91bd 1ed8 3bbd
000003c0: e635 96bd 15eb c53c e8b5 60bd 7125 babc
000003d0: 9c8f b4bd 7dc6 233d f829 ec3c e511 b63c
000003e0: 69a2 8a3c 04b5 a0bd 1894 91bd a813 b1bc
000003f0: 356a 74bd e11f 033d bbac ec3c cd54 98bd

fc2.bias f4 [128]
-0.024389328 -0.12903059 -0.081619926 -0.13273592 -0.093786485 -0.037773587 -0.35921708 -0.007826627
-0.1470119 -0.03876117 -0.07421114 -0.06986515 0.022377951 -0.07874538 -0.0070020203 -0.034272403
-0.04566961 -0.10162896 0.02829944 -0.07637076 -0.09882796 -0.21220273 -0.049979832 0.041310437
-0.064599074 0.33202332 -0.09113909 -0.06168516 0.042377666 -0.15860967 -0.052330412 -0.15263426
-0.11639555 -0.0119180055 -0.24131837 -0.12271085 -0.039663143 -0.035474446 -0.095429085 -0.017230993
-0.12951687 -0.028278947 0.2557623 -0.03995396 -0.10989266 -0.11374289 -0.091973275 -0.12039533
-0.10320662 -0.034850035 -0.049047623 -0.13903567 -0.094123065 -0.055808358 0.07699092 -0.03264832
-0.059012413 0.020179795 -0.03254401 -0.046004783 -0.032188125 -0.14127147 -0.048982773 0.006445824
-0.10834384 -0.0435173 -0.095621385 0.27960554 -0.008934477 0.03809772 -0.045728344 -0.090640046
-0.23983964 0.02907488 -0.1045582 -0.11459507 -0.074933626 -0.006933649 -0.08526076 -0.13830248
-0.08118163 0.008297671 0.04738843 -0.10813167 0.15315811 -0.09388317 -0.046941273 0.04946336
-0.054528907 -0.0886639 -0.060430497 -0.14366543 -0.005974623 -0.062839404 0.021065656 -0.065167286
0.31611434 -0.061255172 -0.16373302 0.011572562 -0.0152569525 -0.011863866 0.15092003 0.043715376
0.005556691 -0.029429428 -0.020007713 -0.15885752 0.037347507 -0.0524231 -0.055008262 -0.060454138
-0.0675979 0.04237854 -0.056762762 -0.12762128 -0.052888613 -0.007081294 -0.10348225 -0.07781421
-0.081595354 -0.12350228 0.034546778 -0.09064941 0.04664331 -0.084503345 -0.08324203 -0.18581593
00000000: 21cc c7bc 9820 04be 5928 a7bd edeb 07be
00000010: 2113 c0bd 7ab8 1abd 4deb b7be 413b 00bc
00000020: 4a8a 16be 08c4 1ebd 03fc 97bd 7615 8fbd
00000030: f751 b73c 4245 a1bd 3471 e5bb 3861 0cbd
00000040: 0f10 3bbd d822 d0bd 3ad4 e73c 4668 9cbd
00000050: 5066 cabd ac4b 59be a7b7 4cbd 2235 293d
00000060: 854c 84bd f6fe a93e 22a7 babd 94a9 7cbd
00000070: 3494 2d3d 936a 22be 6a58 56bd 284c 1cbe
00000080: ca60 eebd bd43 43bc 2a1c 77be d34f fbbd
00000090: d275 22bd a74d 11bd 5370 c3bd 0328 8dbc
000000a0: 12a0 04be 40a9 e7bc 47f3 823e c3a6 23bd
000000b0: 670f e1bd 08f2 e8bd 7c5c bcbd d491 f6bd
000000c0: fe5d d3bd e9be 0ebd 29e6 48bd 5e5f 0ebe
000000d0: 98c3 c0bd 4e97 64bd 6aad 9d3d 3fba 05bd
000000e0: 00b7 71bd 1950 a53c de4c 05bd 836f 3cbd
000000f0: b2d7 03bd 78a9 10be 29a2 48bd 7e37 d33b
00000100: 60e3 ddbd 323f 32bd 25d5 c3bd 7528 8f3e
00000110: ea61 12bc 5b0c 1c3d a54d 3bbd 7da1 b9bd
00000120: 8698 75be 712e ee3c 9c22 d6bd d2b0 eabd
00000130: cd76 99bd aa33 e3bb 319d aebd 2a9f 0dbe
00000140: 8e42 a6bd f4f2 073c 5f1a 423d 2374 ddbd
00000150: 7bd5 1c3e d245 c0bd 7e45 40bd 189a 4a3d
00000160: b459 5fbd 6b95 b5bd f885 77bd 081d 13be
00000170: c5c6 c3bb f2b1 80bd e291 ac3c 6d76 85bd
00000180: bdd9 a13e b4e6 7abd a1a9 27be d89a 3d3c
00000190: 4cf8 79bc a960 42bc c88a 1a3e e50e 333d
000001a0: e714 b63b fc15 f1bc 37e7 a3bc 8cab 22be
000001b0: b3f9 183d 9bb9 56bd 5850 61bd c29e 77bd
000001c0: c570 8abd 1f95 2d3d 1280 68bd 27af 02be
000001d0: bba1 58bd 330a e8bb 80ee d3bd 0e5d 9fbd
000001e0: 771b a7bd c3ee fcbd ec80 0d3d 66a6 b9bd
000001f0: 0e0d 3f3d 1710 adbd cc7a aabd 8846 3ebe

fc3.weight f4 [1, 128]
0.026554132 0.0058511565 -0.029315066 -0.013468674 -0.00028179173 -0.0009939596 -0.054089177 -0.0022182125
-0.014818847 -0.015368039 0.0013483309 0.0021564304 0.0065551396 0.0019322222 -0.007016889 0.007246289
-0.028028317 -0.0021994773 -0.024194833 0.014419597 0.0026889134 0.0055253534 -0.014190319 0.010059343
0.0058041126 -0.04609869 -0.0033358445 0.0034186384 0.055960145 0.017294023 -0.0008810191 0.011140261
-0.00095235324 0.0012544472 -0.047209673 0.03278182 -0.001989289 0.0011565714 0.005878889 -0.0011909308
-0.015469531 -0.059103705 0.02898594 -0.02331833 0.016888428 0.009233538 -0.0075452146 0.009812547
-0.00084066624 0.003917675 -0.0055238726 -0.007874811 -0.0023960809 -0.09662502 0.024879597 0.03245209
-0.029723331 -0.007880626 0.0074418443 -0.0040786294 0.0032559673 0.01047196 0.0009370784 0.038058054
0.00736544 -0.00889633 -0.0119515 -0.012738233 -0.0070710587 0.021789575 0.005808286 0.0039697196
-0.019459339 -0.074508324 -0.00024251537 0.0055295317 0.0013028292 -0.06900076 0.010179737 -0.0057415674
-0.0022128636 0.011087196 -0.02394486 0.013932683 -0.0496474 -0.0007014533 -0.0054173293 -0.02025059
0.0018386422 -0.00287832 0.0057611223 0.00081765413 0.028836938 -0.051129702 -0.0120910555 -0.0063305944
-0.010166549 0.002318876 -0.0076754084 -0.007875612 0.012140356 -0.0053505157 0.040044367 0.0026679134
0.0018830026 0.003313437 -0.03801353 -0.010218963 0.09769936 -0.013622152 0.060165875 0.011806926
0.013118135 0.008239636 -0.009924932 0.0021457858 -0.012515582 0.049340796 0.0039654984 0.00032266398
-0.003280758 0.002433769 0.055149935 -0.019664444 0.011734733 -0.006275909 -0.017219128 0.011381459
00000000: 0d88 d93c 0fbb bf3b 2626 f0bc b7ab 5cbc
00000010: 72bd 93b9 c047 82ba 9d8c 5dbd 6e5f 11bb
00000020: c0ca 72bc 3aca 7bbc 7aba b03a e652 0d3b
00000030: 7fcc d63b 9e42 fd3a eeed e5bb 4772 ed3b
00000040: a49b e5bc 1b25 10bb 3e34 c6bc 2c40 6c3c
00000050: 7b38 303b 060e b53b 837e 68bc f1cf 243c
00000060: 6d30 be3b fbd1 3cbd 2f9e 5abb 3c0b 603b
00000070: 7736 653d 32ac 8d3c 31f4 66ba a485 363c
00000080: 58a7 79ba 436c a43a ee5e 41bd 3b46 063d
00000090: bb5e 02bb 1998 973a b2a3 c03b 0219 9cba
000000a0: ea73 7dbc ba16 72bd ec73 ed3c 1506 bfbc
000000b0: 9a59 8a3c 4448 173c d93d f7bb cec4 203c
000000c0: 2860 5cba d75f 803b 9a01 b5bb 5a05 01bc
000000d0: 9107 1dbb 57e3 c5bd 4cd0 cb3c 7cec 043d
000000e0: 587e f3bc be1d 01bc b7da f33b 06a6 85bb
000000f0: 1162 553b 9592 2b3c 44a6 753a c3e2 1b3d
00000100: ca59 f13b eac1 11bc 39d0 43bc 06b4 50bc
00000110: 57b4 e7bb 0d80 b23c 6f53 be3b 6c14 823b
00000120: 3169 9fbc d297 98bd b94b 7eb9 1331 b53b
00000130: b2c3 aa3a 4550 8dbd e9c8 263c c223 bcbb
00000140: b105 11bb 12a7 353c 0328 c4bc e845 643c
00000150: 125b 4bbd bce1 37ba da83 b1bb 91e4 a5bc
00000160: 98fe f03a 32a2 3cbb ccc7 bc3b d757 563a
00000170: 713b ec3c 616d 51bd 9019 46bc e070 cfbb
00000180: 9991 26bc 49f8 173b fe81 fbbb b608 01bc
00000190: 58e8 463c 6153 afbb 9005 243d 29d8 2e3b
000001a0: 15cf f63a 4026 593b 13b4 1bbd 706d 27bc
000001b0: 9a16 c83d 722f 5fbc 7e70 763d d671 413c
000001c0: 72ed 563c 8aff 063c 2f9c 22bc 50a0 0c3b
000001d0: 280e 4dbc 9319 4a3d 03f1 813b 3a2b a939
000001e0: fc01 57bb de7f 1f3b e6e4 613d 5417 a1bc
000001f0: 0a43 403c 24a6 cdbb 210f 8dbc 4d79 3a3c
