checkpoint_critic1.pth (torch_old, 81387 bytes, 5 tensors)

fcs1.weight f4 [128, 24]
00000000: 99ea 1e3e e1ef bc3d 2855 f23c fa43 133e
00000010: 799b 783d 5f8f 57be f380 6bbb 6c79 8e3e
00000020: f3d2 413e 5829 e03d b867 0dbd 27f6 a63e
00000030: 6090 a43d 34b6 2ebf d157 a83d fba6 b53e
00000040: 3f93 673e 3f86 c7bc 0e82 97bd ec70 05bf
00000050: fc5b 59be 83f7 17bf 57e5 87bd 58e0 0abf
00000060: 199b 7cbc 6aac 813f 566e 3abd 5ad8 c1bd
00000070: 6e29 c63d 07f3 023e 18b3 493d b779 a43c
00000080: c801 0cbd 9ed2 7b3f 0267 2b3d 84b7 e73c
00000090: c4f4 063d 4ebc f33d d4cb 2dbd f605 a43c
000000a0: 2753 e43d ffda 683f 2bec f2ba cb21 86bd
000000b0: 11f7 cf3d 1608 ae3c 1e80 1fbc 71b4 b0bd
000000c0: 0090 843c da12 15bf 8034 b9bc 4feb a3bc
000000d0: e7c8 3e3d 0d89 9e3d 082a b53c 82cf dbbc
000000e0: 8fb4 253b 69ca 13bf 1f0b 523c 9d9e 2b3e
000000f0: 0048 27be 04a7 a03d 51b0 c0bc 5f75 c63d
00000100: 5146 5b3d 1522 debe 8c55 0c3c 843c d0bd
00000110: c93d 7e3e ee1e 56be ef5c d2bc fc08 88be
00000120: 251a 023f 960a 7b3e b3c3 063c bfc6 0e3d
00000130: e87f 2e3d a7ff 10bf 9607 f0bb 0b70 3fbd
00000140: e5b1 7b3e cc91 a0bd cd6a ecbb 2f9c 203d
00000150: 7179 82be 9ba3 f6bd e918 6f3d d3eb 0dbd
00000160: e62b 5a3e 695e e4be 2f5d 733c 2219 a03d
00000170: 4f37 27bf 5795 d53e 0929 ec3c e2d0 cf3d
00000180: ff28 d53d 5b53 c5bd a30a bb3a c4d3 3b3d
00000190: 2f84 a23d 3157 95be c918 b6bc c037 a33d
000001a0: 3617 703d 4570 7fbd a2e4 883c 0d59 4cbc
000001b0: fa13 59bd 3099 19bf 98a7 4abd c3ba 99bc
000001c0: de2b 3e3e 5f1a d23d ea1b 50bc fb08 bc3e
000001d0: e28c c8bd eadb 7cbf cdc6 8ebc 71d6 9d3e
000001e0: 0271 1a3d 2cd5 ad3e 42b1 2ebd e1c2 b23d
000001f0: 14c3 24bd 0855 4a3e c958 b43c 9e0a 083e
00000200: d6cf 1e3e 23e0 f43e c958 48bd 4823 41bb
00000210: 62a0 59be 1a79 da3d 173b 493d d471 b23d
00000220: bd84 373e 7a5f c23e d3f0 60bd 72b5 c5be
00000230: f057 b6be 6e13 0bbe 8bc7 683d 009a a9be
00000240: 6cc8 a93e 8ffd 043e 391c 3fbd 0f27 7e3d
00000250: 14e8 3abe afe0 01be 9123 443d 161d d7bc
00000260: e78d d63e a065 823e a094 bbbd c43d 54bc
00000270: b5ed 85be 9852 723b ac19 78bd d525 cfbd
00000280: 2b78 db3e 4cec 763e 62e4 d1bc eb40 e6ba
00000290: a2d6 b8be ccd5 183d 18ac 133d 8c91 323c
000002a0: 4e89 db3e b8f1 ca3e 9661 5c3d d4d2 f7bd
000002b0: 3252 bebd 5a65 e0be c269 1abd db7e 78be
000002c0: 55a3 a63e 97e7 a23e e4d0 a3bd d010 eebb
000002d0: 70eb 0abe 2205 15bf cc23 8fbd 4efb 19bd
000002e0: 7c14 1e3f 21a0 d73e 2ae8 083c 3add 423e
000002f0: 810e a8be 05ea bfbe 0881 123d 0047 fe3d
00000300: ef35 d1bd 8c6f 363d 9372 6bbd 8839 8f3d
00000310: 86e8 b83e 7de4 343e a178 5f3d 460d 853d
00000320: 3174 9c3d 320f 2f3d 1532 8cba bc1e 1e3e
00000330: 01dc c63e 64b8 85bd 08af 3cbc c571 f93d
00000340: 2934 963e 64b5 253e ee17 823c e5c9 013d
00000350: 8a53 d2be 8458 66be 116a f6bc 270c b73d
00000360: ad49 a43b ad89 393d c325 923d 32f6 b9bb
00000370: 2131 d13e bf83 453d 8786 8fbd e82a ef3c
00000380: 9c8e fd3d 7cae 333e cc63 12bd e790 083d
00000390: c51c 2d3d afba aa3e 7915 b53c 88ef 8a3d
000003a0: b766 263d 91a3 553e eb31 c03a 1024 1e3d
000003b0: fbe5 c0be 781c 6e3f f6fb 3e3c 1b7a 80bd
000003c0: d737 923d 83ac ce3d 8862 de3b 139b 883d
000003d0: e95f 9b3e 31b3 b6be 5ac0 36bd bd58 c73d
000003e0: b0dd db3d 95c3 a63e fc60 c53c 3f7d f93c
000003f0: 096d 773e 57c9 3abe 2767 a4bd 411b 58bd
0.1551918 0.09225441 0.029581621 0.143814 0.060695145 -0.21050785 -0.0035935014 0.27827013
0.18928127 0.10945386 -0.034522742 0.32609674 0.0803535 -0.6824677 0.08219875 0.35478958
0.22614764 -0.024356006 -0.07397853 -0.5212543 -0.21226496 -0.5936205 -0.0663554 -0.5424857
-0.015417838 1.0130742 -0.04551538 -0.09465094 0.09675871 0.1278802 0.049243063 0.02007757
-0.034181386 0.9836825 0.041846283 0.02828575 0.03294827 0.11901151 -0.042430714 0.020022374
0.111486726 0.9095916 -0.0018533518 -0.06549414 0.10154546 0.02124409 -0.009735135 -0.086281665
0.016181946 -0.5823189 -0.022608042 -0.020009665 0.046578314 0.07740984 0.022114769 -0.026832346
0.0025284623 -0.5773073 0.012820034 0.16759725 -0.1633606 0.07844356 -0.023521574 0.096903555
0.053533856 -0.43385378 0.008565318 -0.101677924 0.24828257 -0.20910236 -0.02567908 -0.26569355
0.50821143 0.24515757 0.008225369 0.034857508 0.04260245 -0.56640095 -0.007325123 -0.046737712
0.2457958 -0.078403085 -0.00721488 0.03921145 -0.25483277 -0.12042924 0.058373366 -0.034648728
0.21305808 -0.4460328 0.01485376 0.07817294 -0.6531877 0.417155 0.02882816 0.10147263
0.1040821 -0.096350394 0.0014270138 0.045856252 0.07935368 -0.29168084 -0.022228615 0.07969618
0.058615886 -0.062362928 0.016710583 -0.012472403 -0.052997567 -0.5999937 -0.049476236 -0.018765813
0.18571422 0.10258936 -0.012701968 0.36725602 -0.09792496 -0.9877306 -0.01742878 0.30827668
0.03770543 0.339517 -0.042649515 0.087285765 -0.040225103 0.19759 0.022014992 0.132853
0.1550897 0.47827253 -0.048912797 -0.0029470492 -0.21252587 0.106676295 0.049128618 0.08713117
0.1792173 0.37963468 -0.054917168 -0.38614994 -0.35613966 -0.1358163 0.056830924 -0.33125305
0.33160722 0.1298735 -0.046657775 0.062048968 -0.18252593 -0.12683366 0.04788548 -0.026258986
0.41905138 0.2546816 -0.09159207 -0.012954179 -0.2615792 0.00369755 -0.060571358 -0.10114638
0.42865118 0.24113578 -0.025621597 -0.0017566954 -0.36101252 0.037313268 0.036052793 0.010898959
0.42878193 0.39637542 0.053804003 -0.12100759 -0.09293021 -0.43827325 -0.037698515 -0.24267142
0.32546487 0.31817314 -0.07998827 -0.007265188 -0.13566375 -0.5821096 -0.069892496 -0.03759318
0.61750007 0.42114356 0.0083561335 0.19029704 -0.32823566 -0.3748323 0.035767585 0.12415886
-0.10215365 0.044539973 -0.057482313 0.06993395 0.361149 0.17665286 0.0545584 0.06496672
0.07639349 0.0427391 -0.0010696078 0.15441412 0.38839725 -0.0652931 -0.01151634 0.12179903
0.2933667 0.16182476 0.015880551 0.031686682 -0.4107936 -0.22494704 -0.030079873 0.08937865
0.0050136657 0.045297313 0.07136109 -0.0056751007 0.40857795 0.048221346 -0.07008081 0.029195264
0.12380716 0.1754703 -0.035739705 0.033341315 0.042263765 0.33345553 0.022104966 0.06783968
0.0406253 0.20863177 0.0014663314 0.03860861 -0.3767546 0.9301219 0.011656752 -0.0627329
0.07139557 0.10091498 0.006786648 0.06670203 0.3034661 -0.35683587 -0.044617034 0.09733722
0.10735643 0.32571092 0.024094097 0.03045523 0.24162687 -0.18240868 -0.08027487 -0.052760366

fcs1.bias f4 [128]
00000000: caf6 873e 6b8b 88ba 660d debe 89f4 02bf
00000010: 8644 aebd 25b4 f3bd e0f6 2fbe 9d0e e5be
00000020: 3804 c23d a34b 0bbe 5342 2fbf 156f 423d
00000030: 5dac 60be 31ca b93d 07c9 4f3e efaf 45be
00000040: 19ca 62be 8508 44bc f7a7 85bd 67ce 25be
00000050: 4375 9e3e e6c3 42bc de3a 7fbe 1dd8 c1be
00000060: 2faf fbbd c124 6d3d 7815 88be 403a 253e
00000070: d3f2 a6be 3207 d2bd 01a5 0d3d 4098 6fbe
00000080: 3ece 2fbe c7f2 e4be 4dd4 74be 2733 63be
00000090: ea0f 41be 696b e9bd 5eb1 b5be c66f cabe
000000a0: a8eb 8abe 51da 96be ee6b f33e 57b5 d0bd
000000b0: fd71 2cbd b557 3a3e ef1b 88be 5970 30be
000000c0: 1e79 3f3e 3de3 61be c0e8 78bd 0ef9 02be
000000d0: 46cd f2bc 1e64 adbe 9a1a 7e3e 442a d2be
000000e0: 51d5 143e 3531 66be b747 a7be 3840 623d
000000f0: 4248 0a3e 2489 74be 5f2e 2ebe d2ad 863e
00000100: b99f 43bd 2bd2 d9be 0c90 bfbd 2da9 adbe
00000110: 9531 90be 0291 23be 5dea e13e ee5b 8e3c
00000120: 6675 80be 6436 d9be 6b38 a7be 495c 8b3d
00000130: 49d6 bebe 1089 43bd da2b 4bbe 1d62 073f
00000140: d0fb f7be 69d8 0abe e6fa 05bf 3efd eabe
00000150: c4cd 573e e526 cabd 525c 0ebf 7d06 fabd
00000160: 148a d63b 6821 f3be 1d4f c6be 9c9d 00be
00000170: ff51 58be aa2d 82be 3370 1fbc 3385 fbbe
00000180: ccf8 bbbe a597 3abd b7d7 edbe 45ef cebc
00000190: e78d f7bd aec5 d7be 7203 a33e 4806 e7be
000001a0: f508 07be d670 2d3d a66b 083d 0e8d ccbe
000001b0: 7497 0ebd 8cb7 743e 91a0 b1bd ff76 1b3c
000001c0: e953 94ba c851 263e acdb 16bf c92e b0bd
000001d0: 03f8 5c3c 9708 0ebf c190 99be acb5 53be
000001e0: 0618 b33e ef50 26be 1d2e bf3e fb6e b43c
000001f0: 6e6e 1ebf 9583 033d 6ae1 dfbd 1238 9ebe
0.26555473 -0.0010417526 -0.43369597 -0.5115438 -0.085091636 -0.11899594 -0.17184019 -0.44737712
0.09473461 -0.13603072 -0.6846058 0.047469217 -0.21940751 0.09071768 0.2029153 -0.19305395
-0.22147407 -0.011964922 -0.065261774 -0.16192017 0.3094884 -0.011887526 -0.249248 -0.37860194
-0.12289273 0.05789638 -0.2657888 0.16135502 -0.32607135 -0.10255279 0.034581188 -0.23397923
-0.17168519 -0.44716474 -0.23909111 -0.22187482 -0.18853727 -0.1139744 -0.35486883 -0.395384
-0.27132916 -0.29463437 0.4754328 -0.10190838 -0.042100895 0.1819752 -0.26583812 -0.17230357
0.18698546 -0.22059341 -0.060768843 -0.1279032 -0.029638898 -0.33865446 0.24814835 -0.4104787
0.14534499 -0.22479708 -0.32671902 0.055237025 0.13504127 -0.2388044 -0.17009877 0.2630449
-0.047759745 -0.42543158 -0.09353647 -0.33918133 -0.28162828 -0.15973285 0.44124117 0.01737782
-0.25089568 -0.4242431 -0.3266023 0.06804711 -0.37272862 -0.047738135 -0.19840947 0.52884084
-0.48434305 -0.13559116 -0.52335966 -0.45896333 0.21074587 -0.098707 -0.5560962 -0.12208269
0.006547222 -0.47486424 -0.38732234 -0.12560123 -0.21125029 -0.25425464 -0.00973134 -0.4912506
-0.36713254 -0.045554776 -0.4645364 -0.025260577 -0.120876126 -0.42143005 0.31838566 -0.4512198
-0.1318701 0.042343937 0.033305787 -0.39951366 -0.034812406 0.23898143 -0.08673204 0.00948882
-0.0011316511 0.16242135 -0.5892894 -0.086026736 0.013486865 -0.5548186 -0.2999325 -0.20674771
0.34979266 -0.16241811 0.3733987 0.022025576 -0.6188725 0.03210791 -0.10931666 -0.30902153

fc2.weight f4 [128, 130]
00000000: 7837 8e3d 8643 a1bd df81 58bb 9909 7dbd
00000010: 1474 443d 262a 34bd c56e 00bd 1089 21bd
00000020: 8b53 b7bb 5539 16bd a262 9dbc 7935 823b
00000030: 86f1 c5bd 0497 e6bd b05c 53bd 75ee 00be
00000040: 2588 14bd 1947 2a3d ebc1 47bd 8017 9dbd
00000050: e389 f1bd c873 d2bc 5985 02be dd6a d63c
00000060: f172 9c3c 3a36 d6bd 746f e8bc 50d3 c9bc
00000070: 9b20 57bc c1f1 623c 35bc a6bd eca8 d7bd
00000080: d211 7bbc d625 58bd e4ce c0bd 78e7 31bd
00000090: 6667 f5b9 c470 733c bf54 193d d7c8 fabd
000000a0: 5994 19bd 8613 863d 65d3 c6bd 5eb1 573d
000000b0: 5b0a febd 35ca dfbc dda2 67bc ae06 1fbd
000000c0: e127 92ba a887 0f3c dcd8 17bd e097 393d
000000d0: ab7c b43c f38b abbd 2bf2 4dbd bfe5 92bd
000000e0: 5620 aabd 4dcd 4b3a 1e01 bebd a737 c6bc
000000f0: fc5c a1bd 95a2 663c 35d0 093c 47c8 05bd
00000100: 6202 983c c0b8 9bbd 905a 5bbc a25f f5bd
00000110: bc72 b9bc 460f 6cbd 849d 60bd 914f 72bd
00000120: a861 813c 308e 8f3c 08fe 28bc 42fa 1fbe
00000130: 3c83 81bd 26cc b7ba c0f7 403d 04db 303d
00000140: 6455 2ebd 0f04 7c3b 32ce 183d 5907 c4bd
00000150: fdf3 ca3c e3c0 80bd 4d46 29bd 5eff 55bd
00000160: 3ccb 1a3b 2124 d53c d7f3 b8bd 86b9 73bc
00000170: e1d8 31bd c17f d9bc 4081 d33b 4221 8a3d
00000180: 421e 2ebd 2dea 0fbd f15e b23c bf23 1cbd
00000190: b424 19be b7dc cf3c dab8 a5bd 63fd 04be
000001a0: 554e b6bd b656 a1bd 2781 903d 636a 823c
000001b0: 983c 2ebd 0050 57bd c709 82bc ee15 dd3b
000001c0: 460c 2ebd 0f5c 02bd 5f42 4f3d 4bae 983d
000001d0: d3e1 8dbd eb87 b6bc e0a0 5d3d ebe5 00be
000001e0: c8fb 34bd 453b 00be 4739 2a3d 2445 893d
000001f0: e734 cabc 8c2b b6bd 8bae 783c 2d93 61bc
00000200: 145a 173c e314 40b9 0990 3dbd 855d 503d
00000210: 1027 92bc 76d3 e4bc ed06 d1bb 329e fc3b
00000220: 7822 47bd 7e93 143d 625a c8bb 5381 13be
00000230: bbe8 3e3c 9525 2f3c e4a3 c7bd dcb6 e9bc
00000240: 3b5d 31bc f706 dabc d7f1 e6bc 0ce8 8d3c
00000250: 179e 04be 5538 8bbd f545 6fbc 1edb 853c
00000260: 2cb3 09be d796 19bd 2a7f e6bc 4da9 c83c
00000270: f391 b5bd a6c0 563b 315c 6c3d 277c 3abd
00000280: 5809 dcbd 1742 57bd c318 07be c2fd 45bd
00000290: e59f 64bc 33c9 a83c 7f1b 2fbd 1e71 1abd
000002a0: 3f9a 443d b095 2bbd 0873 1dbd e5f6 24bd
000002b0: 9d7f 9cbd 46d5 303c 8cff 88bd 8733 02bd
000002c0: 123e 81bd a339 ad3c af86 5fbd 0d5c c5bb
000002d0: ab64 13be fa6f 94bd 1d67 c1bc da6e 0bbe
000002e0: 2beb a83d bdab bc3b fa7a 3d3c b480 02bd
000002f0: 6c20 05be 94e5 66bc c32f a6bd 1b46 283c
00000300: b474 e3bd 7f1e b4bd b02a a9bd 1cb3 26bd
00000310: db84 88bc 4223 16be 1f88 f03c 3780 dcbd
00000320: 7b09 e7bd 6d27 dabd 7705 ac3d 920b 66bd
00000330: c3fa c53c 4f5d 3bbd 6df0 2ebd b4c3 043d
00000340: ff42 b2bc 7917 cdbc 09b7 e0bd b144 20bd
00000350: 6410 c5bd bd2e a8ba a280 8abc 6a38 8cbd
00000360: 0373 0ebe 843c a93c fef9 b03b 6692 d0bd
00000370: cbaa 04bd 9999 2c3d e639 423c 9c08 d9bd
00000380: e4ef f7bd 96bc 283d b025 5bbd 078b 2dbc
00000390: 4af6 c1bd a61b 0fbc d53f 423b 19b0 08bc
000003a0: 553f 843c bff8 17bd db60 823c 6337 43bd
000003b0: 53d2 2abd a03e 05bd 4567 cbbd 7a28 15bd
000003c0: f287 98bd 9245 d93c b75b a9bd 112f 9ebc
000003d0: 2b9b b9bd 894a a73c b7ec 0e3d 771f 7f3c
000003e0: 6604 3e3c 61ad 88bd d7ea 99bd a842 11bd
000003f0: 1447 3bbd a1a6 993c 893f bf3c 5077 a8bd
0.069441736 -0.07874207 -0.0033036394 -0.06177673 0.047962263 -0.04398551 -0.031355638 -0.039437354
-0.005594676 -0.03667577 -0.01921207 0.0039736596 -0.096652076 -0.11259273 -0.051602066 -0.12590964
-0.03626265 0.04157171 -0.04876892 -0.07670498 -0.11793878 -0.025689974 -0.1274618 0.026174003
0.019097777 -0.10459562 -0.028373457 -0.024636894 -0.013130332 0.013851584 -0.081413664 -0.10530266
-0.015324073 -0.05277046 -0.09414461 -0.043433636 -0.0004680708 0.014858428 0.037434336 -0.122453384
-0.03749499 0.065466926 -0.09708289 0.052659385 -0.12404319 -0.0273181 -0.014137951 -0.03882473
-0.0011150801 0.00876037 -0.037072048 0.045310855 0.022032103 -0.083763026 -0.050279777 -0.07172727
-0.08306949 0.00077744276 -0.09277557 -0.024196459 -0.078790635 0.0140768485 0.008411457 -0.032661702
0.018555824 -0.07603598 -0.013388291 -0.11981131 -0.022637717 -0.057631753 -0.05483772 -0.05915791
0.015793636 0.017523855 -0.010314472 -0.1562281 -0.06323859 -0.0014022633 0.047111273 0.04317762
-0.042561904 0.0038454568 0.03730602 -0.09571714 0.024774546 -0.0628679 -0.04132681 -0.05224549
0.0023619672 0.026018204 -0.09030884 -0.014875775 -0.043419722 -0.026550176 0.006454617 0.06744625
-0.042509325 -0.035135437 0.021773787 -0.038120028 -0.14955407 0.0253738 -0.08091898 -0.12987284
-0.089016594 -0.07877867 0.07055884 0.01591987 -0.042538255 -0.05256653 -0.015873803 0.006746999
-0.042492174 -0.031826075 0.050600406 0.07455119 -0.06927838 -0.022281608 0.0541085 -0.12587707
-0.04418543 -0.1252261 0.04155853 0.06702641 -0.024683429 -0.08895025 0.015178333 -0.013768
0.009237785 -0.00018318328 -0.04627994 0.050870437 -0.017840892 -0.027932864 -0.0063789994 0.007709288
-0.048616856 0.036273472 -0.00611429 -0.14404802 0.011652167 0.010690113 -0.097480565 -0.028529577
-0.0108254505 -0.02661465 -0.02819149 0.017322563 -0.12950931 -0.06797854 -0.014604081 0.016339835
-0.13447255 -0.037497368 -0.028136808 0.024494791 -0.08865728 0.0032768636 0.057705108 -0.045528557
-0.1074397 -0.052553263 -0.1319304 -0.048337705 -0.013954137 0.020603752 -0.04275083 -0.037705533
0.047998663 -0.0418908 -0.03843978 -0.04027452 -0.07641528 0.010793036 -0.06689367 -0.03178742
-0.06310667 0.021145647 -0.054571804 -0.006022936 -0.1439387 -0.0724792 -0.023608739 -0.13616505
0.0824798 0.0057577775 0.011564964 -0.031861022 -0.13000649 -0.014092822 -0.081145786 0.010270621
-0.11106244 -0.08794879 -0.08260095 -0.040698156 -0.016664913 -0.14661887 0.029361783 -0.107666425
-0.11281105 -0.10652051 0.0839948 -0.056163378 0.024167424 -0.045743283 -0.042709757 0.0324132
-0.021760462 -0.025035607 -0.10972411 -0.03912801 -0.09622267 -0.0012831312 -0.01690704 -0.06846698
-0.13911061 0.020658739 0.005400895 -0.10184173 -0.032389443 0.04213867 0.011854624 -0.10597345
-0.121063024 0.041195475 -0.05350274 -0.010592229 -0.09470804 -0.008734619 0.0029640098 -0.008342766
0.01614348 -0.037102457 0.015915325 -0.047660243 -0.041704487 -0.032530427 -0.099318065 -0.036415555
-0.074478045 0.026522432 -0.08269446 -0.019309552 -0.09062799 0.020421283 0.034893718 0.015571467
0.011597728 -0.066736944 -0.07515495 -0.03546396 -0.045722082 0.018756213 0.023345726 -0.08225882

fc2.bias f4 [128]
00000000: 4b62 843b 955e 25be ceaa afbd e3e2 0bbe
00000010: 6663 e3bd f920 803d 28bd a4bd 6a00 06bc
00000020: fe61 06be 2057 a13d c5c3 0bbc 372f b8bd
00000030: d21e 0e3e 6bbc a8bd 4c36 92bc 28f2 10bd
00000040: 4dc5 823e 9bd5 8cbd b4e6 5bbd 3608 423d
00000050: 0480 e2bd 1b9d 17be 97ed 49bd 5cd9 cd3c
00000060: 8db3 38bd 5077 e3bc 62d8 8ebd dfbf 80be
00000070: 5bde 47be 0060 14be 45ab 52bd b4ac 09be
00000080: f439 f5bd 5f9f 3b3c 0cef 24bb ff83 f5bd
00000090: 857e b5bd bd92 083e c028 10be f32c 0abc
000000a0: 6c46 edbd b6e2 e6bc a028 5e3e f278 71bd
000000b0: adaf f5bd f7ed 05be 944c b9bd 019c bebd
000000c0: 51b3 f9bd 65c0 073e 94e6 0cbd dc95 eabd
000000d0: 698f bbbd 6709 d7bd e7e6 eebd c5d6 c2bd
000000e0: 657b 1bbe 0d16 053d 13a5 45bc d60e eabd
000000f0: a1b6 a73c e984 d2bd 4153 8cbd 71b4 0abe
00000100: 9668 14be db88 f2bc 5417 82be 7884 3a3e
00000110: dab0 e6bc bcdc 54bd 09fc 70bd fbe7 b73e
00000120: c26f 6d3e 06d6 43bc c4b2 ccbd 62ef 84bd
00000130: 1cf4 e5bd 8eb8 c3bd aaec b7bd 0d61 0abe
00000140: e2ea a6bd 654e cbbc 80cf 873d 4b6f 5b3e
00000150: 2652 2f3c cbfc cabd e956 2dbd 3e83 c13c
00000160: 7c3a d53d 3c6b c2bd b3b7 03bd 31de fdbd
00000170: 6fbd 213e 3ce5 14be ce3a 23be 45b4 a2bd
00000180: 6d30 95bd 8f31 453d 0ef8 15be a917 1b3d
00000190: 39bd 163d fecd 643c 61b4 813d 4b04 9c3c
000001a0: 33b5 3b3c 367d 90bc 1c52 67bd 66e6 01be
000001b0: 78a4 b0ba 55eb 5abd c122 893d 6fae 87bd
000001c0: c104 f3bd e036 4f3c c3ff 71bc 2ae4 04be
000001d0: 15b9 c73d 1371 433d 0aed d1bd df90 aabd
000001e0: 4ae4 313e 3633 0ebe 098b e6bc e7f7 e9bd
000001f0: fa2c d5bd 5e4a b7bd 5354 4abd c101 16be
0.0040400377 -0.16149361 -0.085775 -0.13660769 -0.11102943 0.06256289 -0.08043891 -0.00817881
-0.13123319 0.07877946 -0.008530562 -0.089933805 0.13878945 -0.08239063 -0.017848156 -0.03538719
0.25541154 -0.068766795 -0.053686813 0.04737111 -0.11059573 -0.14806025 -0.04929885 0.02512806
-0.045093108 -0.027766854 -0.069748655 -0.25146386 -0.19518416 -0.14489746 -0.051432867 -0.13444787
-0.11973944 0.011451571 -0.0025166897 -0.11988067 -0.08862022 0.13337226 -0.14078045 -0.008433568
-0.115856975 -0.028184276 0.21695185 -0.058953233 -0.11996398 -0.13079058 -0.09047809 -0.09307099
-0.12192405 0.13256986 -0.034399584 -0.11454365 -0.09158213 -0.1049984 -0.11665135 -0.0951362
-0.1518379 0.032491732 -0.012063283 -0.11428611 0.020472826 -0.10279257 -0.06851817 -0.13545395
-0.14493021 -0.029606273 -0.25408423 0.18214595 -0.028160501 -0.05196832 -0.05883411 0.35919175
0.23187163 -0.011952883 -0.09995034 -0.06490971 -0.11228201 -0.095566854 -0.08980687 -0.13513584
-0.08150269 -0.024817655 0.06631374 0.21429174 0.010700738 -0.09911498 -0.042319212 0.023622151
0.10411546 -0.094931096 -0.03215761 -0.12395895 0.1579492 -0.14540571 -0.15940401 -0.0794454
-0.07284627 0.048142966 -0.14645407 0.03786436 0.03680155 0.013965128 0.06333233 0.019045016
0.0114567755 -0.01763783 -0.05647479 -0.12685546 -0.001347675 -0.053447086 0.06696082 -0.066250674
-0.11866141 0.012647361 -0.014770451 -0.12977663 0.097520985 0.047715258 -0.1025029 -0.08328413
0.17372242 -0.13886723 -0.028142469 -0.11424237 -0.10408969 -0.08949731 -0.049396824 -0.14649107

fc3.weight f4 [1, 128]
00000000: 5839 24bc 7b17 673c e98e d23b 17e3 123c
00000010: ca77 3fbc c42e fdbd 051b 0c3d 4ff2 ae3c
00000020: 0e6f 9f3b b6f5 303c 4fd3 843d 97e2 b0ba
00000030: 8809 7c3c 078d db3b 1653 01bc dc2d 52bc
00000040: eb0c a2bc 0f12 34bc 2d93 803c 8c0a 963d
00000050: 13ed 31bc 908f 373c 17bb cf3b 0e79 6f3c
00000060: 9b43 9fbb 99e7 503d 89f9 ec3a c60c 74bd
00000070: b6ab 2bbd adae 653c 7f73 93bb c611 063c
00000080: 13a1 be3c 71e1 20bc 69f2 bdbc f42d de39
00000090: b31c b8bc a535 d63c 4603 ea3b b125 853c
000000a0: 1fe0 953c 1af9 93bd 7301 c43c 8f7a 2cbb
000000b0: 3230 ae3b 1b4d 3b3c 31e4 563b 2d72 2abc
000000c0: fdbf 3dba b68e 9d3c de03 35bd 33d8 a03c
000000d0: 16c2 463b 2591 ca3b 434d cd3b 8517 8dbc
000000e0: 333d bfbc 2b1a 073d 5e99 f338 7f75 dcbc
000000f0: 1e6c ba3c eb65 9c3b 8198 703b 4093 303d
00000100: 51b2 59bb ef52 6c3c 4721 d03c 05d1 10bd
00000110: fab5 10bc 3f58 4b3b df6f 8fba cfab be3c
00000120: db8b 0bbd 338b 43bc 5dfb 463c b053 2ebd
00000130: 7c26 86bc 2323 7d39 7acc 10bc 72a8 7d3b
00000140: 8b23 3039 a4c7 72bb a536 9a3b dfbd bebc
00000150: 0fd0 2cbc 41fc bbba 1870 79bc 416e fdbc
00000160: ad79 9fbc ba72 10bc d38e 01bc 96f8 8aba
00000170: 0f80 883d aa17 f4bb 592c 8ebd 3cb5 5dba
00000180: f74e 10bb 6975 693d 31d7 b1bb 1dd4 023d
00000190: c7e4 79bc 4cc3 77ba e6c7 82ba cb8f 8dbc
000001a0: 4516 88bb a20c 6fbc 0038 513c 3a29 73bc
000001b0: 4d12 423d 30ee 94bc c28f d3bd 791b 7f3c
000001c0: febe 10bb 9561 d5bb 21ec 17bc 5def e1bb
000001d0: 4d31 2c3d 684a 29bc 2d7a d23c 3e09 14bc
000001e0: 7b15 9cbd 95a9 403c b41f 8c39 64a5 bfbc
000001f0: a9f2 0ebc 9fce 303b 57fb b43c ea6c 5dbb
-0.010023437 0.014104719 0.0064257276 0.008965275 -0.011686275 -0.123624355 0.034205455 0.021355776
0.0048655337 0.01080077 0.064856164 -0.0013495263 0.015383132 0.0067001614 -0.007893344 -0.012828317
-0.01978155 -0.010990634 0.015695179 0.073262304 -0.010859746 0.011203662 0.0063394415 0.014616264
-0.004860354 0.05100212 0.0018079738 -0.059582494 -0.041911803 0.014018697 -0.004499852 0.008182948
0.023270166 -0.009819374 -0.02318688 0.00042377377 -0.022474622 0.026148627 0.0071415035 0.016253324
0.018295346 -0.07225247 0.023926472 -0.0026318168 0.005315804 0.011431958 0.0032789821 -0.010403198
-0.00072383863 0.019233089 -0.04419314 0.019634342 0.0030328087 0.0061818534 0.006265314 -0.017223129
-0.023344612 0.03298394 0.0001161571 -0.026911495 0.022756632 0.0047728918 0.0036711993 0.04310918
-0.0033217857 0.01442407 0.025406493 -0.035355587 -0.008832449 0.003102794 -0.0010943374 0.023275284
-0.034068923 -0.011935043 0.012144891 -0.04256028 -0.016375773 0.0002414105 -0.0088378135 0.0038705138
0.00016797909 -0.0037045265 0.004706221 -0.023283897 -0.010547652 -0.0014342145 -0.015224479 -0.030936362
-0.0194672 -0.008816415 -0.007907587 -0.0010602649 0.0666505 -0.00744911 -0.069420524 -0.0008457487
-0.0022019723 0.056996737 -0.005427264 0.03194057 -0.015252299 -0.0009451404 -0.0009977787 -0.01728048
-0.0041530454 -0.014590414 0.012769699 -0.014841372 0.047380734 -0.018179983 -0.10330154 0.015570515
-0.0022086496 -0.006511877 -0.009272606 -0.0068949894 0.042039204 -0.010332681 0.025693024 -0.009035407
-0.076212846 0.0117591815 0.00026726502 -0.023394294 -0.008724847 0.0026978625 0.022092504 -0.0033786842
